models/lstm_model_v1.0.0.pth (torch, 10213 bytes, 9 tensors)

encoder.lstm.weight_ih_l0 f4 [48, 1]
-0.010200209 0.13343626 0.075889535 0.18611644 0.13974655 0.096953444 0.056944508 0.229626
0.097700156 0.0013065855 -0.025199303 0.16752575 -0.015861977 0.101674244 0.058515176 0.25539175
0.12785575 0.1903795 -0.0013757758 0.17478092 0.052449126 0.00082970207 -0.12616031 0.116997264
0.1783519 -0.48506576 0.3019592 0.22740938 -0.33419505 -0.20927165 0.53944826 -0.5795219
-0.56090826 0.13800426 -0.5676357 -0.6905895 -0.05715452 -0.024953684 -0.0072415294 0.053000696
-0.034973297 0.057635702 0.012458287 0.13131899 0.083339736 0.0008961013 -0.017790437 0.13218366
00000000: c71e 27bc 84a3 083e f96b 9b3d 4f95 3e3e
00000010: b819 0f3e 878f c63d a53e 693d 1423 6b3e
00000020: 0517 c83d bc41 ab3a c56e cebc df8b 2b3e
00000030: faf0 81bc 963a d03d 9cad 6f3d b5c2 823e
00000040: 9eec 023e d8f2 423e 6053 b4ba c5f9 323e
00000050: e5d4 563d 5d80 593a 2b30 01be 439c ef3d
00000060: e1a1 363e 8a5a f8be 659a 9a3e 01de 683e
00000070: 9d1b abbe 4f4b 56be 4819 0a3f 8c5b 14bf
00000080: af97 0fbf fd50 0d3e 9350 11bf 79ca 30bf
00000090: dc1a 6abd ab6b ccbc 5a4a edbb 4217 593d
000000a0: 2940 0fbd 6a13 6c3d d81d 4c3c 7c78 063e
000000b0: 06ae aa3d 57e8 6a3a 40bd 91bc 275b 073e

encoder.lstm.weight_hh_l0 f4 [48, 12]
-0.008120001 -0.0073541347 0.013962949 0.0008991941 -0.012220998 -0.051846087 -0.018629342 -0.0024017424
-0.01559986 -0.0022623555 0.011168255 -0.019743398 -0.024048284 -0.013725893 0.032574225 0.038364984
-0.048942897 0.028565457 0.0028194627 -0.022228906 0.011571678 -0.00021141695 0.011011186 0.01563491
-0.0022779112 -0.019656291 0.01745831 0.017887246 -0.03682765 -0.020290311 0.0025897191 -0.02224363
-0.007421894 -0.00048593027 -0.0023336727 0.0026422213 -0.035375305 0.0012039521 0.044578012 0.03846163
-0.057997927 0.10239513 0.015639288 -0.018166127 0.06967277 0.0006504343 0.02182772 0.10361297
-0.012523931 -0.019918252 0.023427527 0.035894822 -0.043655373 0.0009914972 0.00033898922 -0.029947825
0.007362373 -0.0003276139 0.007650405 0.021905974 -0.114238024 -0.100319 0.113476135 0.12217966
-0.14206155 -0.09821145 -0.046420485 -0.09096382 -0.053179964 -0.005641974 0.08904724 -0.060566418
-0.042683404 -0.027242066 0.04127341 0.043708418 -0.055539887 -0.024796583 -0.015256383 -0.02816116
-0.010522912 -0.001569613 0.031754278 -0.0025311594 -0.044327635 -0.026340334 0.032170102 0.06562553
-0.048057064 0.06642208 0.0154985 -0.041134622 0.028154593 0.001036596 0.021753281 0.06189053
-0.04124344 -0.028038032 0.04715908 0.048863325 -0.06652657 -0.010497267 -0.0103015965 -0.031380437
-0.007075814 -0.0010849469 0.023224223 -0.008157878 -0.0018994929 -0.0008410224 0.0013148123 0.0007210326
-0.0019524018 -0.0008554329 -0.00028743965 -0.00048355488 -0.00016896632 -3.3430737e-05 0.0013786068 -2.4963356e-05
-0.04687884 -0.05115042 0.06523559 0.048705094 -0.055324517 -0.09527369 -0.024964103 -0.045906495
-0.05827524 -0.0024768964 0.03812016 -0.08058622 -0.08263607 -0.05790706 0.09163287 0.09633356
-0.13097848 -0.02380247 -0.026447406 -0.06244376 -0.010015204 -0.0032247507 0.05483863 -0.009456829
-0.010474574 -0.01098293 0.01600952 0.002514112 -0.0134457145 -0.07791769 -0.02095659 -0.0022533739
-0.017607322 -0.0024536953 0.013744554 -0.026121246 -0.0027200524 -0.0067012073 0.015336609 0.01936777
-0.024216007 0.035825823 0.0078073153 -0.016390622 0.0033823343 0.00025123803 -0.0047883564 0.025204288
0.0029225494 -0.0204277 0.020648662 0.018927941 -0.051383287 -0.025919242 0.0020186289 -0.027668769
-0.018403985 0.0012707266 -0.014944265 0.018274777 -0.03387246 0.011895127 0.023516007 0.032386407
-0.05322477 0.121883735 0.020430459 -0.006848903 0.077163465 0.0011905673 0.014966394 0.124961145
-0.0014214248 -0.025537418 0.0590649 0.03334178 -0.024574928 0.0037105647 0.003102068 -0.036015335
0.008828066 0.0013397775 0.003200553 0.017772825 -0.20958994 -0.19634733 0.18182534 0.19626066
-0.23150983 -0.1911073 -0.09443097 -0.18917501 -0.12651505 -0.008503271 0.15507248 -0.16627577
-0.01650428 -0.0182349 0.022887345 0.01988572 -0.025460728 -0.03325598 -0.0077083213 -0.016995858
-0.0077842777 -0.00090038433 0.014080231 -0.0121332975 -0.005972544 -0.0012257751 0.010106461 0.023260994
-0.03733837 0.084047236 0.025934823 -0.016949764 0.042284 0.0023396355 -0.006109284 0.066086836
-0.021306563 -0.02173642 0.027337937 0.025502741 -0.035328317 -0.01455526 -0.012950233 -0.023794917
-0.017228317 -0.00037990877 0.012575524 -0.02694052 -0.001087713 -0.00043985705 0.00048147357 0.00016249932
00000000: c109 05bc f4fa f0bb dac4 643c e5b7 6b3a
00000010: 953a 48bc 905c 54bd 909c 98bc 8d66 1dbb
00000020: 8e96 7fbc 0744 14bb 0efb 363c e8bc a1bc
00000030: e800 c5bc 91e2 60bc 8d6c 053d 9a24 1d3d
00000040: 5978 48bd 1b02 ea3c bcc6 383b 6519 b6bc
00000050: 2397 3d3c ceaf 5db9 4368 343c c814 803c
00000060: 0249 15bb 3b06 a1bc bb04 8f3c 4688 923c
00000070: 97d8 16bd de37 a6bc 47b8 293b 4638 b6bc
00000080: 5c33 f3bb 75c4 feb9 88f0 18bb 1e29 2d3b
00000090: b2e5 10bd eecd 9d3a 6f97 363d f189 1d3d
000000a0: 3c8f 6dbd 8ab4 d13d f71d 803c 21d1 94bc
000000b0: 99b0 8e3d e881 2a3a 0cd0 b23c 0933 d43d
000000c0: 2d31 4dbc 9a2b a3bc 16eb bf3c 7306 133d
000000d0: facf 32bd 20f5 813a 5dba b139 2455 f5bc
000000e0: 1040 f13b 98c3 abb9 40b0 fa3b 2874 b33c
000000f0: a0f5 e9bd 0c74 cdbd 2d66 e83d 5439 fa3d
00000100: 9578 11be 1623 c9bd 6823 3ebd 3d4b babd
00000110: 3cd3 59bd 4fe0 b8bb 665e b63d 7e14 78bd
00000120: cbd4 2ebd c12a dfbc 4f0e 293d 9907 333d
00000130: cb7d 63bd 3422 cbbc e9f5 79bc 3cb2 e6bc
00000140: 4b68 2cbc 79bb cdba c610 023d cfe1 25bb
00000150: e590 35bd afc7 d7bc ccc4 033d ae66 863d
00000160: 7cd7 44bd 4d08 883d 6ced 7d3c c77c 28bd
00000170: 76a4 e63c 64de 873a f033 b23c ed80 7d3d
00000180: e2ee 28bd 04b0 e5bc e129 413d e924 483d
00000190: 153f 88bd bbfc 2bbc 07c8 28bc c688 00bd
000001a0: 3bdc e7bb c734 8eba ba40 be3c 9fa8 05bc
000001b0: 68f8 f8ba 0f78 5cba c855 ac3a ae03 3d3a
000001c0: bce7 ffba 213f 60ba 7fb3 96b9 a385 fdb9
000001d0: 8d2c 31b9 fb37 0cb8 5eb2 b43a 6668 d1b7
000001e0: 0704 40bd 1a83 51bd 3d9a 853d fe7e 473d
000001f0: f69b 62bd da1e c3bd 8581 ccbc 7308 3cbd
00000200: 05b2 6ebd 6d53 22bb e323 1c3d 630a a5bd
00000210: 1a3d a9bd f42f 6dbd 04aa bb3d 884a c53d
00000220: 391f 06be 66fd c2bc 3ba8 d8bc 07c5 7fbd
00000230: cf16 24bc 5756 53bb 799e 603d d1f0 1abc
00000240: 8c9d 2bbc bff1 33bc 6626 833c cdc3 243b
00000250: 6a4b 5cbc 4f93 9fbd 28ad abbc 57ad 13bb
00000260: 3b3d 90bc 2dce 20bb d630 613c 39fc d5bc
00000270: e842 32bb cd95 dbbb 6746 7b3c 28a9 9e3c
00000280: a660 c6bc 19be 123d 82d4 ff3b a045 86bc
00000290: 27aa 5d3b 99b8 8339 a5e7 9cbb 3979 ce3c
000002a0: 3e88 3f3b fe57 a7bc 6227 a93c c50e 9b3c
000002b0: 4877 52bd 9754 d4bc f94a 043b 9da9 e2bc
000002c0: f4c3 96bc 828e a63a cad8 74bc fcb4 953c
000002d0: d9bd 0abd c7e3 423c a4a4 c03c 9ca7 043d
000002e0: 3702 5abd 2e9e f93d c75d a73c c36c e0bb
000002f0: e107 9e3d cf0c 9c3a 9b35 753c a1eb ff3d
00000300: 1a4f baba d933 d1bc 09ee 713d 6491 083d
00000310: 5c51 c9bc f22c 733b 114c 4b3b d184 13bd
00000320: 98a3 103c 799b af3a 5ec0 513b 5198 913c
00000330: bf9e 56be 460f 49be 6c30 3a3e 8ef8 483e
00000340: ea10 6dbe a2b1 43be 0665 c1bd 18b7 41be
00000350: 298d 01be 4e51 0bbc 52cb 1e3e 3244 2abe
00000360: fc33 87bc 5b61 95bc 3e7e bb3c 61e7 a23c
00000370: 0493 d0bc 6c37 08bd 1696 fcbb e63a 8bbc
00000380: 4113 ffbb c507 6cba c5b0 663c bdca 46bc
00000390: 55b5 c3bb 30aa a0ba 9295 253c d78d be3c
000003a0: 1ef0 18bd f520 ac3d 4475 d43c 3bda 8abc
000003b0: fd31 2d3d 9254 193b 6330 c8bb 8958 873d
000003c0: 1a8b aebc 9410 b2bc cff3 df3c 20eb d03c
000003d0: 6db4 10bd 2f79 6ebc 372d 54bc 8fed c2bc
000003e0: 6622 8dbc 7e2e c7b9 9209 4e3c 5eb2 dcbc
000003f0: 9891 8eba 9d9c e6b9 4a6e fc39 9464 2a39

encoder.lstm.bias_ih_l0 f4 [48]
0.07249169 0.095110595 0.0511527 0.16271605 0.070256464 0.28526247 0.18200245 0.17190535
0.25408432 0.0033450194 0.0311171 0.45075664 0.06520063 0.07500642 0.039598815 0.059656665
0.19304678 0.30493465 0.046759095 -0.04253446 0.14801945 0.00091969775 0.0035612066 0.28198224
-0.21240123 0.005236722 0.0667459 0.10984283 -0.17314027 0.10127017 -0.04828578 -0.14688046
0.13419002 0.10524952 0.19796376 -0.20658533 0.05670976 0.07394687 0.03459597 0.068597496
-0.01449085 0.028670091 0.07494583 0.10206843 0.18850353 0.0042388183 0.06532889 0.36249804
00000000: 8676 943d 58c9 c23d 7e85 513d 099f 263e
00000010: 9fe2 8f3d ec0d 923e da5e 3a3e f507 303e
00000020: 5717 823e 1d38 5b3b 4ae9 fe3c 93c9 e63e
00000030: e887 853d f79c 993d 5e32 223d 8c5a 743d
00000040: 0eae 453e 6520 9c3e 7786 3f3d 9d38 2ebd
00000050: 6992 173e df17 713a 2263 693b fa5f 903e
00000060: b57f 59be cf98 ab3b 13b2 883d 47f5 e03d
00000070: af4b 31be bc66 cf3d 4fc7 45bd d567 16be
00000080: 1c69 093e 0f8d d73d 03b7 4a3e 1b8b 53be
00000090: 7e48 683d 7571 973d 81b4 0d3d d87c 8c3d
000000a0: 086b 6dbc 8add ea3c 337d 993d 4109 d13d
000000b0: 1207 413e c9e5 8a3b 27cb 853d 5899 b93e

encoder.lstm.bias_hh_l0 f4 [48]
0.07429718 0.16543789 0.04071641 -0.04089931 0.026435524 0.21898018 0.18221056 0.05804789
0.20915315 0.003409727 0.2436832 0.4980867 0.074278966 0.033586558 0.17127372 -0.025060691
-0.027966537 0.2583456 0.0471156 0.009145423 0.10644188 0.00073835347 -0.0057524587 0.27421594
-0.12544553 -0.1413291 0.17075624 0.20229416 -0.21998909 0.020537201 -0.07863978 -0.03316771
-0.045241613 -0.12199765 0.11816681 0.26653513 0.054803725 0.07422767 0.06931745 0.03907237
0.05503718 0.07317732 0.07707227 0.07771622 0.18920495 0.0036338626 0.08304343 0.3919795
00000000: 1f29 983d 8d68 293e 40c6 263d 0986 27bd
00000010: 508f d83c 573c 603e 6895 3a3e a0c3 6d3d
00000020: 3e2c 563e ba75 5f3b 1788 793e 3805 ff3e
00000030: 921f 983d 0f92 093d 6162 2f3e 144c cdbc
00000040: 141a e5bc e045 843e 4afc 403d afd6 153c
00000050: 33fe d93d 108e 413a 1f7f bcbb 0866 8c3e
00000060: cb74 00be 93b8 10be b9da 2e3e 3326 4f3e
00000070: d244 61be a23d a83c e50d a1bd ddda 07bd
00000080: 454f 39bd e7d9 f9bd 7101 f23d 4b77 883e
00000090: df79 603d ad04 983d 4ff6 8d3d 590a 203d
000000a0: ab6e 613d fedd 953d 11d8 9d3d ae29 9f3d
000000b0: f1be 413e 1926 6e3b ac12 aa3d 89b1 c83e

decoder.lstm.weight_ih_l0 f4 [48, 1]
-0.015880713 -0.16061658 0.1702548 0.015075924 0.26358548 -0.00032728066 0.020307662 0.07429584
-0.018067395 -0.00244701 -0.032646634 0.12490944 0.049563777 -0.082402125 -0.06634424 0.2798729
0.25723225 0.21912484 0.050741885 -0.05736737 -0.017979708 -0.024338918 -0.07325891 0.2839949
-0.005709972 -0.14144363 -0.029999059 0.042892113 -0.028165568 -0.09555672 -0.13956873 -0.069064856
-0.12560828 0.20376208 -0.2968668 0.09187628 0.03517647 0.2059502 -0.16672671 0.27425537
0.1517837 0.029670138 -0.07234347 0.34249008 0.1754496 -0.0036643231 -0.11589874 0.20885596
00000000: 4518 82bc ac78 24be 4657 2e3e 0201 773c
00000010: adf4 863e de96 abb9 415c a63c 6b28 983d
00000020: 1302 94bc 045e 20bb 7ab8 05bd 85d0 ff3d
00000030: 6303 4b3d 72c2 a8bd 7ddf 87bd 804b 8f3e
00000040: f2b3 833e 4362 603e b9d6 4f3d 0cfa 6abd
00000050: 2e4a 93bc 6962 c7bc c408 96bd c867 913e
00000060: b81a bbbb 99d6 10be 96c0 f5bc a4af 2f3d
00000070: 7abb e6bc 3eb3 c3bd 1beb 0ebe e071 8dbd
00000080: 759f 00be 02a7 503e edfe 97be a229 bc3d
00000090: 3415 103d 9ce4 523e 68ba 2abe 336b 8c3e
000000a0: 306d 1b3e ca0e f33c d028 94bd dc5a af3e
000000b0: 0fa9 333e 2425 70bb 525c edbd 56de 553e

decoder.lstm.weight_hh_l0 f4 [48, 12]
-0.0007735145 0.004351793 0.0025419323 -0.005474449 0.00490618 0.0040529585 0.0017965875 0.004268183
0.0031490643 -0.00039921078 -0.0015184464 0.0034471308 -0.08712789 -0.15938026 -0.010390741 0.004343133
-0.1533868 0.061380602 -0.16256632 0.16199614 -0.16136503 0.048861403 -0.013767919 -0.100872874
-0.017262878 -0.050300695 -0.14130786 -0.20706156 -0.1449858 -0.07466389 -0.15189926 0.16807596
0.14579543 0.109891504 -0.06693246 0.074094415 0.07729023 -0.21014439 0.09182376 0.11653868
-0.12090849 -0.06428361 0.12132484 -0.15879276 -0.20582618 -0.031068232 -0.09875954 -0.11935014
0.020779395 0.1333722 0.013921055 0.04313956 -0.11939413 -0.10237124 0.07701854 -0.140012
-0.1479865 -0.05043015 -0.027449086 -0.08607003 0.009577338 -0.020752197 -0.019969264 0.030756976
-0.023099536 -0.009608624 -0.024662877 -0.024714991 -0.013295519 0.0014078193 0.028090274 0.00084870076
0.03367627 0.15699323 0.00028172397 -0.05846432 0.08417881 0.04012308 -0.044767562 -0.1416721
0.054288574 0.034169868 -0.0028970242 -0.017567871 0.0300281 0.1790729 -0.13363539 0.24398483
0.06942547 0.09854876 0.1369136 -0.07155422 -0.19321531 0.08182196 -0.10360138 -0.10135978
0.007144068 -0.1245698 0.009148087 0.021531709 -0.086682 -0.06192137 -0.023401111 -0.0030849157
-0.04620129 -0.023800466 -0.017722748 -0.08063989 0.0019744923 -0.0038952667 -0.010153497 -0.0028217726
-0.005667313 -0.0051361625 -0.013649755 -0.010523278 -0.00073190435 0.0036773765 0.0005669359 0.0040220944
-0.033395488 -0.028560141 -0.02242356 0.016397566 -0.003338947 -0.036082733 -0.08111295 0.04980362
-0.021674065 -0.024154164 0.033319995 -0.0043398705 -0.0020610741 -0.06447631 0.035022054 0.06297293
-0.065857105 -0.12942104 -0.016676629 -0.085783094 -0.10188317 -0.03915261 0.011988316 -0.19195628
0.0037729028 -0.002744482 0.00442865 0.0036977835 -0.0045614415 -0.019976718 0.0023799262 -0.0048714327
-0.005799231 -0.0003262404 -0.0024152647 -0.016060252 0.06336735 0.07793166 0.17026095 -0.08465961
0.08872401 -0.048606373 0.1525635 -0.07554988 -0.15202613 -0.12919925 -0.04506191 -0.14824085
-0.075369455 0.09727633 -0.2019325 0.013718009 -0.05779557 0.07036262 0.055434786 -0.057066854
-0.027067717 0.16374803 -0.0063826414 -0.035980534 0.04597194 0.06158267 0.2027324 0.13026853
0.0514197 0.005627594 -0.122188464 -0.05294667 -0.17311446 0.11419592 -0.06795793 -0.10815531
0.0074458933 -0.11936496 0.14263585 0.08586249 0.10993872 -0.035346664 -0.008703177 -0.17614718
-0.09604618 -0.016703634 -0.0005646362 -0.15564966 -0.13876219 -0.18759175 0.051962066 0.2708603
-0.2838663 -0.09986456 -0.08712153 -0.21989167 -0.164842 -0.00088163075 0.20288765 -0.16772921
-0.025288623 0.048770268 0.15809654 0.004820867 -0.09881121 0.008906502 -0.082048565 -0.08302515
0.035049632 -0.035482474 0.02431806 -0.03589012 0.047171358 -0.19449218 -0.012572621 -0.11831654
-0.21296322 -0.1622003 -0.19100429 -0.2173076 -0.07269823 0.0047291103 -0.017496891 -0.14413604
-0.0068642944 0.00987296 0.036751933 0.11610253 -0.11094915 -0.06688353 -0.020121213 -0.07940633
-0.10313002 -0.023300732 -0.0059904247 -0.09029328 0.001605566 -0.020491455 -0.051170986 0.008653446
00000000: aec5 4aba 7c99 8e3b 8c96 263b 0263 b3bb
00000010: 05c4 a03b aece 843b 797b eb3a 1ddc 8b3b
00000020: 8860 4e3b 2a4d d1b9 9b06 c7ba 42e9 613b
00000030: 1b70 b2bd 9434 23be ed3d 2abc d750 8e3b
00000040: 6e11 1dbe 3a6a 7b3d c977 26be 51e2 253e
00000050: e03c 25be e522 483d d692 61bc 7096 cebd
00000060: e16a 8dbc 1a08 4ebd 02b3 10be f207 54be
00000070: 2877 14be 62e9 98bd 7b8b 1bbe 1b1c 2c3e
00000080: 664b 153e cc0e e13d e313 89bd d0be 973d
00000090: 574a 9e3d 1730 57be 180e bc3d d5ab ee3d
000000a0: df9e f7bd 20a7 83bd 2879 f83d 929a 22be
000000b0: 19c4 52be ce82 febc 7142 cabd d96d f4bd
000000c0: 8d39 aa3c b992 083e 2315 643c 1bb3 303d
000000d0: e984 f4bd 03a8 d1bd e5bb 9d3d 4e5f 0fbe
000000e0: c689 17be d88f 4ebd e8dc e0bc 7c45 b0bd
000000f0: 44ea 1c3c 8300 aabc 9596 a3bc 0ef6 fb3c
00000100: 3d3b bdbc 7d6d 1dbc cd09 cabc 1877 cabc
00000110: 73d5 59bc 9486 b83a 931d e63c 587b 5e3a
00000120: 21f0 093d d5c2 203e 5ab4 9339 4878 6fbd
00000130: f165 ac3d 1958 243d 315e 37bd 7e12 11be
00000140: b25d 5e3d b4f5 0b3d 00dc 3dbb 7fea 8fbc
00000150: 7dfd f53c e35e 373e b7d7 08be 29d7 793e
00000160: f12e 8e3d efd3 c93d 1433 0c3e 058b 92bd
00000170: 3cda 45be 4692 a73d f62c d4bd b795 cfbd
00000180: c918 ea3b 741e ffbd dce1 153c 4463 b03c
00000190: 5586 b1bd 43a1 7dbd b0b3 bfbc 4c2c 4abb
000001a0: 903d 3dbd 32f9 c2bc 4c2f 91bc 8726 a5bd
000001b0: 7c66 013b bb47 7fbb da5a 26bc 7ded 38bb
000001c0: deb4 b9bb 414d a8bb 39a3 5fbc d469 2cbc
000001d0: 45dd 3fba 2400 713b 6d9e 143a c6cb 833b
000001e0: b5c9 08bd f5f6 e9bc 9db1 b7bc 3054 863c
000001f0: 3cd2 5abb 7dcb 13bd 8c1e a6bd e1fe 4b3d
00000200: cf8d b1bc f4de c5bc 8c7a 083d 7935 8ebb
00000210: 1613 07bb 280c 84bd 4973 0f3d f4f7 803d
00000220: 17e0 86bd f386 04be 6d9d 88bc 0caf afbd
00000230: 20a8 d0bd 7d5e 20bd a46a 443c 3090 44be
00000240: ce42 773b c4dc 33bb 351e 913b 8356 723b
00000250: 2578 95bb 37a6 a3bc 89f8 1b3b 8aa0 9fbb
00000260: 7a07 bebb 3f0b abb9 6b49 1ebb ca90 83bc
00000270: bec6 813d a29a 9f3d e358 2e3e 0562 adbd
00000280: efb4 b53d 7a17 47bd 9b39 1c3e e5b9 9abd
00000290: bdac 1bbe cf4c 04be d692 38bd 73cc 17be
000002a0: 4d5b 9abd d038 c73d 65c7 4ebe 80c1 603c
000002b0: 0cbb 6cbd 471a 903d 960f 633d efbe 69bd
000002c0: 1ebd ddbc 90ad 273e 7a25 d1bb 5360 13bd
000002d0: 134d 3c3d 1c3e 7c3d 1599 4f3e 1d65 053e
000002e0: 779d 523d ae67 b83b f23d fabd 9cde 58bd
000002f0: eb44 31be 8ddf e93d 872d 8bbd 8880 ddbd
00000300: aefc f33b 9e75 f4bd 220f 123e acd8 af3d
00000310: 8d27 e13d aac7 10bd c597 0ebc ed5f 34be
00000320: dcb3 c4bd 0fd6 88bc 1804 14ba a062 1fbe
00000330: ad17 0ebe 0d18 40be 2dd6 543d 34ae 8a3e
00000340: ec56 91be ca85 ccbd c66c b2bd 482b 61be
00000350: 57cc 28be 3d1d 67ba c8c1 4f3e 35c1 2bbe
00000360: 162a cfbc 55c3 473d 0fe4 213e 5df8 9d3b
00000370: 885d cabd 94ec 113c 1409 a8bd 1709 aabd
00000380: 3490 0f3d 1256 11bd ab36 c73c 8501 13bd
00000390: c136 413d f528 47be 65fd 4dbc f14f f2bd
000003a0: 0813 5abe d617 26be a196 43be e285 5ebe
000003b0: cfe2 94bd a7f6 9a3b a455 8fbc 6698 13be
000003c0: e0ed e0bb 32c2 213c 3289 163d 2ac7 ed3d
000003d0: 4f39 e3bd 3bfa 88bd 3ed5 a4bc c99f a2bd
000003e0: d535 d3bd 2de1 bebc 534b c4bb afeb b8bd
000003f0: db71 d23a b2dd a7bc ab98 51bd 2fc7 0d3c

decoder.lstm.bias_ih_l0 f4 [48]
0.026332326 -0.12025238 -0.21997862 0.30068594 -0.16207485 0.11348959 -0.22293851 0.22503337
0.27398473 0.1344583 0.13515007 0.10056693 0.039103933 0.2868003 0.20304318 -0.18691483
0.034692977 0.06575627 -0.07021261 0.14233817 -0.1624899 0.04768121 -0.07886334 0.17873691
-0.051831238 -0.13702819 -0.26488653 -0.085391745 -0.24239641 -0.011811286 -0.13090605 -0.120213345
-0.09963727 0.15886892 -0.009360318 -0.15962332 -0.09805925 0.19320485 -0.28694448 0.28085646
-0.17789766 -0.09177354 0.08118897 0.092048146 -0.002049404 -0.25708747 0.27919114 0.07964065
00000000: e4b6 d73c e146 f6bd 1342 61be 82f3 993e
00000010: f3f6 25be 3b6d e83d fe49 64be 266f 663e
00000020: ba47 8c3e 70af 093e c864 0a3e 09f6 cd3d
00000030: 722b 203d 7dd7 923e 8dea 4f3e 9a66 3fbe
00000040: 391a 0e3d 39ab 863d a1cb 8fbd 19c1 113e
00000050: c163 26be 5f4d 433d 1a83 a1bd cf06 373e
00000060: fe4c 54bd 1e51 0cbe 359f 87be dee1 aebd
00000070: c436 78be 2084 41bc 3c0c 06be 6a32 f6bd
00000080: a00e ccbd 89ae 223e 055c 19bc 4c74 23be
00000090: 4ad3 c8bd 7ed7 453e 63ea 92be 6bcc 8f3e
000000a0: ce2a 36be c4f3 bbbd 6746 a63d bd83 bc3d
000000b0: 4b4f 06bb f8a0 83be 24f2 8e3e a31a a33d

decoder.lstm.bias_hh_l0 f4 [48]
-0.11773396 0.027801102 -0.14596201 -0.04751163 0.16388561 0.1613098 -0.146743 -0.016236018
0.0412248 0.20142151 -0.16099659 0.017450484 -0.0010082991 -0.06417841 0.07786609 0.010237243
-0.11166574 0.36236542 -0.12171742 -0.04085935 -0.16820449 -0.08401918 -0.13985953 0.109749645
0.12689258 -0.033137098 -0.05245379 0.21651416 0.022854097 0.09723917 -0.020163156 -0.05147257
-0.0004965019 -0.10030067 0.040269025 0.08384514 -0.09517235 -0.25004706 0.05444095 -0.012070188
-0.035985444 0.060125932 -0.22976173 -0.21494168 -0.11865648 0.12103539 0.06784416 0.07815998
00000000: 811e f1bd 23bf e33c 1177 15be 8e9b 42bd
00000010: a1d1 273e 652e 253e cc43 16be 6601 85bc
00000020: 56db 283d 7141 4e3e 4adc 24be 51f4 8e3c
00000030: e728 84ba f86f 83bd 4278 9f3d 1cba 273c
00000040: 02b1 e4bd f687 b93e fc46 f9bd 225c 27bd
00000050: cc3d 2cbe 3f12 acbd 5637 0fbe 6cc4 e03d
00000060: 21f0 013e c4ba 07bd c9d9 56bd e3b5 5d3e
00000070: 8438 bb3c 5425 c73d 342d a5bc e7d4 52bd
00000080: ae27 02ba 706a cdbd 22f1 243d 00b7 ab3d
00000090: b9e9 c2bd 2b06 80be 79fd 5e3d 0ac2 45bc
000000a0: 7965 13bd 9c46 763d a946 6bbe ac19 5cbe
000000b0: 2b02 f3bd 67e1 f73d e1f1 8a3d 5712 a03d

decoder.linear.weight f4 [1, 12]
-0.029475402 -0.22434872 0.15038115 0.30155712 -0.18374106 0.10884947 0.15218025 -0.20813146
-0.04173231 -0.021192983 -0.27545494 -0.20949233
00000000: 6676 f1bc acbb 65be 84fd 193e b265 9a3e
00000010: 9e26 3cbe 79ec de3d 24d5 1b3e 6a20 55be
00000020: 80ef 2abd e89c adbc 6e08 8dbe 2885 56be
