models/lstm_model.pth (torch, 424757 bytes, 27 tensors)

encoder.lstm.weight_ih_l0 f4 [256, 1]
00000000: cced 0f3b 0733 be3e 83be 7f3e 3a2c 3f3e
00000010: c469 c63e d956 c23d 2b6e 83bd 78bf f23e
00000020: 5eed d23e 72ad fc3e 41c6 773d ae2b 4a3e
00000030: 53d1 673e 4cb6 e03e c8f2 a03e 88d2 be3e
00000040: 6fa8 ff3d 7b0b 043f 9ec5 6cbe 5ec2 913e
00000050: 26f6 8f3d 81d2 9a3e d82c 54be 3fd6 3bb9
00000060: e450 d3bd 1e7d ba3e cf12 643e f017 c53e
00000070: ea2a 3abc ab66 813e aac7 c9bd 2853 52be
00000080: a6a5 b83e 02ce d2bc e856 b73e dd7b 133f
00000090: 12ab b43e 24b6 503e b8ac 0a3f 48cc 9c3e
000000a0: 6e13 883e 1dc4 503c a054 c63e 47a3 49be
000000b0: 9447 a6bc fc11 cc3e 39fa e0bd 838a ea3e
000000c0: 902a b23c 80af 073f 57c6 913e 43ab c03e
000000d0: a8b9 d53e a5a8 9e3e a7a9 c0bd 72fe 623e
000000e0: 8dbb 003e d38c e4bd fb50 ad3d 1a91 b53e
000000f0: 0c97 ac3d 5e2b dc3e b414 0d3d 35b3 d03e
00000100: bf54 2b3e 976e 58bb cd85 803e 29dd 043e
00000110: d4b8 d53e 1388 55bd 750b 32ba 1b01 193f
00000120: 28b7 e93d 3c3b c13e 91bf 1b3e bceb 313e
00000130: 799c 303e ec6c d33e 5f11 6b3e 1012 823e
00000140: ba8e 183e a575 bb3e 8042 87be e34f 933e
00000150: 5ca5 cbbd 03de 903e a334 2abd f294 f13a
00000160: f935 51bd 5533 ac3e 2f6f 92bc 3352 e03c
00000170: 331b 7fbe 11ff 753e e9bb a2be 61e2 1bbe
00000180: 4c03 c23e 3894 68be e084 b33e a8a1 0a3f
00000190: 0701 ba3e 68f2 dc3d d37a e83e a10e af3d
000001a0: 8293 04be 29ca 8e3c 3a96 453e 97d2 babd
000001b0: 8692 9fbd f259 313e 99e2 8ebd f9dc df3e
000001c0: 3e2c e93d f5b2 b73e e4cd 62b9 609f ca3e
000001d0: c3d1 7f3e 2ae2 9ebc 5ab1 1dbb b760 893e
000001e0: d2a8 b83d 5b34 1bbd 78af a43c e506 d9bd
000001f0: 1c92 413d 20b3 d43e a3b6 e5bc 4828 6f3e
00000200: 9ff5 403d b7f8 b93e feff 4bbe 5884 35bd
00000210: 47f9 cd3e 9579 953e a848 a03e 2a05 be3e
00000220: be8f b5be 3ba5 c73e f2bc 95bd 08a9 503e
00000230: 4ba5 a83e 4069 3cbe 1c96 a8be 1d27 a0be
00000240: 06f8 823e 191a d53e b667 b83e 31ed 803e
00000250: db7b 8a3e 2a2a 8cbe 2a2b 0a3e 3d4b 52bd
00000260: 0d99 f9bd 700b 9e3e 820c 9cbe a726 9abe
00000270: 47b0 403e 20e4 2fbe 28d7 8d3e fe64 1dbd
00000280: fcc4 a2be 5db3 153e 9e48 89be 1687 a53e
00000290: 5fc0 583e 0c31 2abe c53e ebbe 443f 14bf
000002a0: f8d7 623e eeb8 8b3d 5603 a7be 2ff3 1a3d
000002b0: 8963 54be 1f86 aabe 56c9 24bd 0f7a 733e
000002c0: 5448 e13d a17f ad3e 06e6 353e d601 d33e
000002d0: 4a80 c13e fd65 833e 0013 76be e89c 9c3e
000002e0: 8779 8ebd cff4 c23d 717e 6fbe 41eb bbbe
000002f0: 3077 25be 88b0 7a3e e0dd 0dbe f6d3 bdbe
00000300: 3897 883e 44ed 393e 84c5 d13d 4867 1d3d
00000310: e691 173f 5103 3dbd 56a7 85be 5a48 353f
00000320: fb41 f43e 71cd 273e a774 9cbc 3b03 0c3e
00000330: e352 ba3e 90a0 c73e cd7a 843e 8618 a73e
00000340: 785a 303e dcdd 103f 0db7 26be 1522 e33d
00000350: 2f46 aabd dcc9 993e ae25 aebd b72b 75bd
00000360: 20dc 56bd d019 c43e ab60 bb3d 2781 803e
00000370: 1b0d c1be 1ed1 f43d efc8 d9bd f1c5 4d3e
00000380: 14b6 053f 12ab b93e 3bfe 693e f5b5 233f
00000390: 05aa 9c3e 18eb 6e3e aac5 4dbb 648c a23e
000003a0: 4a66 f53b a169 54be cf7a f43e 3a33 b3bd
000003b0: 3ebf ba3c 5e1c 343e 6e9f 773e 118d fb3e
000003c0: 30cb 51be dfa6 223f 14fd 84bd f465 d8bd
000003d0: 3262 bb3e 89d9 8a3e c8ad c2be 08dd 713e
000003e0: 8b93 52be 5ed4 c43e e1fd edbc 04ff c03e
000003f0: e4b6 393d 8988 dd3e 0278 0ebe fc67 023e
0.0021961806 0.37148306 0.24975018 0.18669215 0.38752568 0.09489221 -0.06417497 0.47411704
0.41196722 0.49351078 0.060491804 0.19743225 0.22638445 0.4388908 0.31435227 0.37269998
0.12483298 0.5158002 -0.2312226 0.28468603 0.07029371 0.30238727 -0.20720232 -0.00017913523
-0.10318163 0.36423582 0.222728 0.38494825 -0.011362771 0.25273642 -0.09852536 -0.20539534
0.3606388 -0.025732998 0.35808492 0.57610875 0.35286766 0.20381981 0.541698 0.30624604
0.26577324 0.01274207 0.3873644 -0.19691192 -0.020297803 0.3985747 -0.10985226 0.458088
0.021748811 0.53002167 0.28471634 0.37630662 0.41743207 0.3098804 -0.094073586 0.22167376
0.12571545 -0.111596726 0.084627114 0.35462266 0.084272474 0.43001837 0.034443572 0.40761724
0.16731547 -0.00330249 0.25102082 0.12974991 0.41742575 -0.052131724 -0.00067918684 0.5976731
0.114118874 0.37740505 0.15209796 0.17375082 0.1724719 0.41294038 0.22955845 0.25404406
0.14898196 0.36613193 -0.26417923 0.28771886 -0.09943649 0.28294381 -0.041554105 0.001843123
-0.051076863 0.33632913 -0.017875282 0.027382946 -0.2491272 0.24023081 -0.3178399 -0.15223075
0.3789314 -0.22712791 0.35062313 0.5415292 0.3632891 0.10788423 0.45406207 0.08547712
-0.12946895 0.017430382 0.19295588 -0.09122198 -0.07791619 0.17319468 -0.06976814 0.43723276
0.11385392 0.3587872 -0.0002162974 0.39574718 0.24982361 -0.019394953 -0.0024062009 0.268316
0.09016575 -0.037891727 0.020103201 -0.10597018 0.04725848 0.41542912 -0.02804119 0.2335521
0.047109243 0.36322567 -0.19921872 -0.044315666 0.40229246 0.29194322 0.31305432 0.37113315
-0.3546123 0.38993248 -0.07311429 0.2037698 0.3293861 -0.18399525 -0.32927024 -0.3127984
0.25579852 0.41621473 0.36016625 0.25180963 0.2704762 -0.2737592 0.13493028 -0.051341284
-0.12187395 0.308681 -0.30478293 -0.30107614 0.18817244 -0.17176867 0.27703214 -0.03842639
-0.31790912 0.14619203 -0.26813215 0.32329625 0.21167134 -0.16620272 -0.45946327 -0.57909036
0.22152698 0.06822382 -0.32619733 0.037829574 -0.20741095 -0.3330545 -0.04023107 0.2377703
0.110001236 0.33886436 0.17763528 0.41212338 0.3779319 0.25663748 -0.24030685 0.3058846
-0.06956773 0.0951935 -0.23388077 -0.36702922 -0.16158748 0.24481404 -0.1385417 -0.37075776
0.2667787 0.18156916 0.10242751 0.038428575 0.59207 -0.04614574 -0.2610423 0.70813525
0.4770659 0.16386963 -0.019098593 0.13673107 0.36391363 0.38989687 0.2587494 0.32635897
0.17222011 0.5658853 -0.16280766 0.11090485 -0.08314168 0.3003682 -0.085032806 -0.059856143
-0.05245602 0.38300943 0.09149297 0.25098535 -0.3770531 0.119539484 -0.10634028 0.2009504
0.52230954 0.3626333 0.22850887 0.6394952 0.30598465 0.23331869 -0.0031398335 0.31747735
0.0074890004 -0.20743419 0.47749946 -0.08750005 0.02279627 0.17588946 0.24181911 0.49131063
-0.20487666 0.63535875 -0.06493583 -0.10566321 0.36598355 0.2711909 -0.3802321 0.23619473
-0.20564096 0.38443273 -0.029051723 0.3769456 0.045340434 0.4326823 -0.13912967 0.1273498

encoder.lstm.weight_hh_l0 f4 [256, 64]
00000000: 031f 3fbe 13cf 073e e44d 38be d918 a13e
00000010: 92b1 e83e 5f0f 67be 5887 6fbe d2d7 a93c
00000020: d951 43bd d90d bdbd ff32 1c3d 4d5f 07bd
00000030: fca9 c3bc 247e 32be abcd 27be 2006 55be
00000040: 5b70 343d c5c0 183e e3a9 30be 171f 3a3c
00000050: 8448 54bc a68e 97be 30df 97bd b118 a93d
00000060: ceb9 343d fefa a63e 122d 9abe bbe7 b33c
00000070: 9730 8ebd 1d7f 2d3d e0f3 f0bd 4639 473d
00000080: 12b4 7a3e 5d20 10be 387e c6be 4f9c 603e
00000090: 397a 413d 4ea6 b4be 51fb 9abe d012 ce3d
000000a0: 5f21 17be 493a ebbc 76cc 4abe 5b5e fdbd
000000b0: 2f43 263e 8c52 f5bd 2dec 8a3a 35a2 883e
000000c0: eb78 a03e ffc8 463e 9601 7bbd 9a0d d03d
000000d0: 2e12 893e ed0e 293e 5f59 913b 3e0d f13d
000000e0: 70b7 483d 5895 0ebc b64a dbbd f933 97bd
000000f0: 82e3 9b3d 8e61 413e ae18 2fbe 9c96 a2be
00000100: 5710 2cbe a41e 49bc 915d 34be c772 22be
00000110: ad46 273e 44ac d63b 8e0a bd3c 1367 ea3d
00000120: cea9 59be cccb 673e be1f 843e d3d2 30bc
00000130: 0aeb 9b3e def3 12be 117e 57be 050f b8bd
00000140: 4548 ff3d 754b 453e dabe c6bd 6276 953d
00000150: 73cf 09bd 2b2f 04be d70b 52be d7e6 823d
00000160: 3ed0 f0bd b4cc 823e d54f 2bbe 7385 4bbe
00000170: 224b 8cbe cdf8 d0bd 8182 3ebd 88c5 313e
00000180: 1ea2 43be 3214 8dbe 125d 98be 96aa 8a3e
00000190: 5adb b63d 119f 34be fd2d 2fbe dc61 97bd
000001a0: d2ae dc3b 6c08 4abd 7eae 7abe 3816 e13d
000001b0: 28f9 89be 3f36 dbbd d39a 1abe 1a8b 1e3e
000001c0: 14e1 bd3d 7c30 4f3e 0e73 203d d229 ef3d
000001d0: c0b5 333e b77e 623e 913c 46bd 0979 233e
000001e0: efa4 cabc 0167 3a3e c275 1e3c d0bf 3b3e
000001f0: d293 9dbd cf2a 2b3e 630b 703d 9923 5fbd
00000200: 5509 7dbd 5a5b 5bbd 2953 cfbd 274a 25bc
00000210: ba81 513b fa75 b93d c84d ac3d 7e26 c2bd
00000220: e43d d4bc bbaa 7abd 0c4c eabd 7a8a 9d3d
00000230: c4b2 5fbd f1b0 38bd 947f d7bd 54e5 c6bd
00000240: a66e 92bc f561 263e 9cc6 acbd 46fc fc3d
00000250: 5438 e2bd 1078 55be ba37 9dbd 6445 e3bd
00000260: 1cf3 2dbe fdff 3c3c e271 b9bd 0a45 87bc
00000270: 0195 0abd db7b 1cbc 4084 f0bd 96bd b1bd
00000280: 894f 873d b0e4 813c 0b63 38be 8eb3 e33d
00000290: a88e 39ba 4bd5 46be d621 0bbe a13b ee3d
000002a0: e5d4 1dbd 85cc dabc d42b 55ba 5fe2 a63d
000002b0: 5970 e1bb 48cf 9bbd cfc5 dcbd b135 543d
000002c0: 281f f43d 5974 043e 7d05 d2bd 1341 69bc
000002d0: be4d 46bb 3a6b f23d 2de0 cdbd fded 833c
000002e0: 7cb5 043e 613e 8dbd b39e 293d 25c6 833d
000002f0: e09b e43d a1f7 9b3d bfc9 22bd cc52 7fbd
00000300: e911 21bd ac3d ed3d 5b9d 323d a2d5 803b
00000310: 68c7 1a3e 4ad9 0cbe 08fa 1ebe bc2c 193d
00000320: a10c e43d f4f6 1abc 3b15 a23d bda6 d83d
00000330: 85f0 203d 8037 b23c dada 5dbe ba84 62bd
00000340: 965b ab3d 32d7 8c3d 9d7d 6d3d fd95 6a3c
00000350: 6aad 5b3e 0cf4 2ebe c88d 0f3d dde6 113d
00000360: 7b4a c6bd 6b77 4f3e c6ac 1fbe 463a 013d
00000370: 2f23 d4bd f01a 463d 0886 28bc f42b c2bb
00000380: e59c 103c d008 d8bd 4010 2dbe da1a 0e3e
00000390: 65c9 033e f235 75be 860f 24bb 54e3 c1bc
000003a0: df21 2e3d fcaf cc3d 5d05 50bd aee1 49bc
000003b0: 0bfd c53d 350f f8bd 9ee5 bfbc a956 96bc
000003c0: d20a 583d b3bd c13d b4ec 293e 6f61 873d
000003d0: 2cbb 373e de2f cfbd 541b fe3d 7eac 7e3e
000003e0: af1e c2bd 2a92 623d 4145 22bd 5809 65be
000003f0: 41cc 1b3d 6e38 a93c 7937 e53d b9a8 20bd
-0.18664174 0.13262586 -0.17998463 0.3146427 0.45447975 -0.22564457 -0.23391473 0.020732794
-0.047685478 -0.09231157 0.03813457 -0.03304987 -0.023884766 -0.17430931 -0.1638705 -0.20803118
0.044052463 0.14917286 -0.17252307 0.011359951 -0.012956742 -0.2960102 -0.074156165 0.08256663
0.04412251 0.32613367 -0.3011251 0.021961084 -0.069428615 0.042357553 -0.117652655 0.048638605
0.24482754 -0.14074846 -0.38768172 0.21934627 0.0472357 -0.3528313 -0.30269864 0.10062182
-0.14758824 -0.028714316 -0.19804558 -0.123715125 0.16236566 -0.11978635 0.001059895 0.26686254
0.31342253 0.19412611 -0.06128081 0.10158844 0.26771683 0.165096 0.0044357027 0.11770104
0.049003065 -0.0087025985 -0.10707609 -0.0738296 0.07611753 0.1888487 -0.17099258 -0.3175553
-0.16803108 -0.012275372 -0.17613818 -0.15864097 0.16335554 0.0065512974 0.023076322 0.11445441
-0.21256182 0.22636336 0.25805467 -0.010792452 0.30452758 -0.1435084 -0.21044184 -0.0898724
0.12464956 0.19267066 -0.09704371 0.0729797 -0.033645105 -0.12908618 -0.20512329 0.063916855
-0.11758469 0.255468 -0.16729672 -0.19875126 -0.27401072 -0.10203705 -0.046511177 0.17360508
-0.19104812 -0.2755447 -0.29758507 0.27083272 0.08928557 -0.17638804 -0.17107387 -0.07391712
0.0067347074 -0.049324438 -0.24480626 0.10990566 -0.26947904 -0.10703706 -0.15098123 0.1548275
0.09271446 0.20233339 0.039172225 0.116778985 0.17549801 0.2211865 -0.048397604 0.1596414
-0.02473685 0.18203355 0.00967163 0.1833489 -0.0769421 0.16715549 0.05860461 -0.054477308
-0.061776478 -0.053553917 -0.101232834 -0.01008848 0.0031968192 0.09055705 0.08413273 -0.09479998
-0.025908418 -0.061197978 -0.11440286 0.07692428 -0.054613844 -0.04509062 -0.105223805 -0.097117096
-0.017875027 0.16248305 -0.08436319 0.12352805 -0.110459 -0.20846581 -0.076766446 -0.110972196
-0.1698727 0.011535642 -0.090549245 -0.016512413 -0.033833507 -0.009551014 -0.11743975 -0.08678739
0.06606967 0.015856117 -0.18006532 0.11118232 -0.00070784474 -0.19417302 -0.13587126 0.11632467
-0.03853311 -0.02670885 -0.0008131836 0.081486456 -0.006879848 -0.07607895 -0.107799165 0.051809017
0.11920005 0.12935008 -0.10254953 -0.014236706 -0.003025874 0.11836858 -0.10052524 0.016104693
0.12959856 -0.068966635 0.041411113 0.064342774 0.11162543 0.07615591 -0.03974318 -0.06233482
-0.03932372 0.115840286 0.043607097 0.003931717 0.1511513 -0.13754764 -0.15525067 0.037396178
0.11135221 -0.009458292 0.07914206 0.10578678 0.039291877 0.02175498 -0.21665516 -0.05530236
0.08367078 0.06876983 0.057981122 0.014317987 0.21452871 -0.17085284 0.035047323 0.03562056
-0.09682175 0.20260398 -0.15593252 0.031549715 -0.10358273 0.048365533 -0.010285862 -0.00592565
0.008826469 -0.10548556 -0.1690073 0.1387743 0.12869795 -0.2394636 -0.0025033667 -0.023667969
0.04251277 0.09994504 -0.050786365 -0.012321873 0.09667405 -0.121122755 -0.02342492 -0.01835187
0.052744694 0.094600104 0.16594201 0.06610381 0.17942494 -0.10116552 0.12407556 0.24870488
-0.09478509 0.055315174 -0.039616827 -0.22366846 0.03803659 0.02065679 0.11192221 -0.039223406

encoder.lstm.bias_ih_l0 f4 [256]
00000000: 39e6 1b3e 7558 313e f323 d9bc 38c8 7a3d
00000010: 75c3 a63e 2040 bebc 473e 8bbc 2262 2b3d
00000020: 81c3 383e edae 823e d831 333d ac3c 2f3e
00000030: d706 99bc 68e6 983d 2769 8e3d 3a45 ce3d
00000040: 0947 30bd b3fe 7a3d 508d 013e 75cc 29bd
00000050: 966c f33c 5cec b63d 685f 913c d52a 1d3d
00000060: f8e1 f4bc 8ffe d43c 6f7e e43c 4f1f 433e
00000070: fecb 163e 4331 5d3e 3ec8 24bd dd84 d6bd
00000080: 26ae 9c3d 8d20 723d 6951 af3d 2228 3d3d
00000090: 5306 a8bd 2355 b6bd 7bdd 8a3e d9a5 873e
000000a0: f33d c23d 81a2 653d 70cb 233e 3920 efbd
000000b0: b29c 36bd 6a4b 203e 31eb 17be 9b05 9cbd
000000c0: 81a8 b5bd 950c 593e 5598 023e f4fe fa3d
000000d0: 4c1a 453e f101 1b3d 0202 dc3d 06fa 9a3b
000000e0: a472 173d c1ac c33d 49cb f43c c87a 2e3e
000000f0: f47b de3c 14f9 1d3e c877 183e 10c4 483d
00000100: dabc 0d3e dbe0 2e3d 0884 f43d a60f 65bd
00000110: 21a6 023e 4b41 6c3d e686 8abc 5820 de3d
00000120: 3cff e13d 03d6 293e 2326 e0bd e6ee 3c3e
00000130: e9f6 02be a88f c7bc 9201 223d 50e0 113e
00000140: c51b 8f3d 6069 50bd 7e42 143d af2e c63c
00000150: b6bf 303e 05fe eabc 6749 d83d eda5 71bd
00000160: f210 12bd be9d 083e 1e71 e1bc 98b1 aebd
00000170: d408 ad3c edc8 5abd 9fe6 683d 49ef 853d
00000180: 22c2 f83d 647a e83d 9221 13bd f7c5 01bd
00000190: a2df 683d 1996 5b3d 8c79 b7bd 49eb d2bd
000001a0: 13e1 abbd e177 eb3d 948b a9bd 7c39 343d
000001b0: 61f0 433d 6bae 523d 8678 e83c 44a5 503d
000001c0: 169e c93d 1d6f b3bd 0d6c 8d3d 0fc4 4d3e
000001d0: a7f0 7d3d 4f4c 8f3d a9c2 023e f583 c43d
000001e0: ffbb 0f3d 1073 ac3d 2c38 263d 0509 28bd
000001f0: d3c7 11bd 767a e83d 2a22 9ebc 42d1 a2bd
00000200: e701 1d3d ea37 4c3c 7e79 18bd 1d93 543d
00000210: e93c be3d 57e2 c4bd 014c 2c3d a443 3e3c
00000220: bf1b c4bd e9e1 b33c 0cc5 c6bd d129 f83d
00000230: d124 c53d aeae 09bd 5124 30bd b28a a4bd
00000240: dec1 353d b170 003e cac0 e3bd 416a d43d
00000250: 3f8e e13d 114a 19bd 96f5 acbd 2787 a4bd
00000260: 6b85 163d 7c94 473d d8db d33d 7e2d 493d
00000270: d7f7 34be e123 adbb 66da cbbd 5581 d73d
00000280: 917c a8bb a19a b2bd 35dc 143d 6cad 463d
00000290: a06a 503d b21b be3d c731 59bd df9f 60bd
000002a0: bf33 433c 71ef b7bd 29b1 91bd 92f5 32bd
000002b0: 888a e6bd 76b5 ad3d 4426 b23b a6e8 dcba
000002c0: 9a54 8cbd 940a 4d3d d533 9ebd 8b89 963d
000002d0: 2aeb cdbc 4aab ab3d 980a cc3d ea2b 3b3d
000002e0: a375 d5bd f9e5 9f3d 7fe3 853d 0a23 973d
000002f0: 127b c0bc ceaa c63d 0688 d13d 1f65 c63d
00000300: cf3f 243d 9c38 653e ac04 2bbd e22c 693d
00000310: e00f 6a3e 2d92 dcbd 7906 723c 32ea 88bd
00000320: b932 3b3c 1019 f33c 4a6e b1bc 3a59 b5bd
00000330: 5098 1abd c07c db3d 5986 24bd 2fcf b23d
00000340: b0b6 153e b7ac 863c 5c1e 35bd 662f e8bd
00000350: f304 233e 9d85 1d3e aebf 91bd cf23 80bd
00000360: b83e b3bd 83bc 3c3d fc14 c33d 8f67 ec3b
00000370: 8d87 d43d 3ab7 01be 92a0 2ebc 1447 c43d
00000380: e723 97bd 5544 76bc 855d 163d 3514 75bc
00000390: eeb4 403d f919 6bbd f1bd 943d 5a1b 843d
000003a0: 7f30 243e 44f3 e5bd eed6 853c a120 d13d
000003b0: eadb 40bd 2c6d 813d eefa adbd 4414 d43d
000003c0: 3126 9f3d 3a82 3a3e bd6b febc dfa8 09be
000003d0: f092 6e3e 1611 7b3d 736d 35bd 2a53 1cbd
000003e0: 1cdb 373a 9835 0b3d ba79 cb3d bfa8 973c
000003f0: d998 47be 63f4 84bd b837 8cbd a485 313d
0.15224542 0.173189 -0.0265064 0.0612261 0.32570997 -0.023223937 -0.01699747 0.041841634
0.18043329 0.25524083 0.043748707 0.17112988 -0.01868002 0.074658215 0.0695365 0.10071798
-0.043036494 0.061278056 0.12651563 -0.04145475 0.029714864 0.08931801 0.017745689 0.038370926
-0.029892907 0.02600029 0.02789232 0.19054912 0.14726254 0.21600823 -0.04023003 -0.104745604
0.07650404 0.059113074 0.0856045 0.04618085 -0.08204331 -0.08902957 0.271221 0.2649372
0.09484472 0.05606318 0.15995574 -0.11676068 -0.04458303 0.15653768 -0.14835812 -0.07618257
-0.0887003 0.21196206 0.12753423 0.1225566 0.19248313 0.03784365 0.107425705 0.004729512
0.036974564 0.095544346 0.02988209 0.17039025 0.027158715 0.15427047 0.14889443 0.049015105
0.13841572 0.042694908 0.119392455 -0.055923127 0.12758686 0.057679456 -0.016910028 0.10846013
0.1103501 0.16585545 -0.10944774 0.18450508 -0.12789501 -0.024360493 0.03955228 0.14245725
0.069877185 -0.050881743 0.036196224 0.024192182 0.17260632 -0.02868558 0.105608754 -0.05899613
-0.03566069 0.13341424 -0.027519759 -0.08529967 0.021122374 -0.053414274 0.056860562 0.06539781
0.12146403 0.11351469 -0.035920687 -0.031682935 0.056853898 0.05360994 -0.0895873 -0.10298783
-0.08392539 0.114974745 -0.082785755 0.044000134 0.047836665 0.05143587 0.028377783 0.05093886
0.098446056 -0.087614276 0.06905375 0.20094322 0.061997082 0.069969766 0.1276957 0.09595481
0.035091396 0.08420384 0.040580913 -0.041024227 -0.035590958 0.113514826 -0.0193034 -0.07950069
0.038331892 0.012464503 -0.03722524 0.05189811 0.092889614 -0.096134834 0.04206467 0.0116128065
-0.09575605 0.021958308 -0.097055525 0.12117351 0.09626163 -0.033613853 -0.043003384 -0.080342665
0.04437434 0.12542988 -0.11120756 0.10371829 0.110134594 -0.03742415 -0.08445279 -0.08033591
0.03674833 0.04872559 0.10344666 0.04911565 -0.17672668 -0.005283818 -0.099537656 0.10522715
-0.0051418026 -0.087208994 0.03634282 0.04850523 0.050882936 0.09282626 -0.053025987 -0.054839965
0.011914193 -0.08981217 -0.07113869 -0.043691225 -0.112568915 0.084818766 0.0054366905 -0.0016854003
-0.06852074 0.050058916 -0.0772473 0.07350453 -0.025136549 0.0838228 0.09962958 0.045696177
-0.10422828 0.07807536 0.06537532 0.0737973 -0.023496184 0.09700547 0.102310225 0.09687256
0.040099915 0.22384876 -0.041752502 0.05692757 0.22857618 -0.10770068 0.014772051 -0.06685294
0.011425667 0.029675037 -0.021659035 -0.08854909 -0.037742913 0.107171535 -0.040167186 0.087309234
0.14620471 0.016439779 -0.044218406 -0.113371655 0.15919857 0.15383 -0.07116638 -0.0625683
-0.08752197 0.046078216 0.09525487 0.0072144936 0.10377417 -0.12667552 -0.0106584 0.095838696
-0.07379895 -0.01503094 0.03671028 -0.014958431 0.047047548 -0.057397816 0.07262791 0.064505294
0.16034125 -0.1122804 0.016337838 0.102113016 -0.047084726 0.06319651 -0.08495127 0.10355428
0.07770956 0.1821374 -0.031057233 -0.13443325 0.2329824 0.06129559 -0.044293832 -0.03816525
0.0007013546 0.033986658 0.09935327 0.018513082 -0.194919 -0.064919256 -0.06846565 0.04334034

encoder.lstm.bias_hh_l0 f4 [256]
00000000: 7615 0e3e 41a2 1b3e 2c0d a33d 907c 3a3d
00000010: dfce 3e3e 072b ce3d 3e5b 273e 20e9 273d
00000020: f355 943d 1de1 993e 840d db3c feeb 513e
00000030: ef5f 2ebd b094 39bd 230b 04bb 4afd 8c3c
00000040: 0f09 503d d206 763e e63d 803d 3366 513d
00000050: 329c 283d 9aec de3d ec80 7c3d 090d abbc
00000060: af55 793d a1e9 473e 0205 313e 9531 7f3e
00000070: 1c0d 173e 6f37 493e cc14 043e 2901 4e3d
00000080: 8bfb 63bb c0b4 cb3d 8d8e 373c b10f 2a3e
00000090: 6998 3c3c ac02 29bd 4ca3 333e e5cb 813e
000000a0: 7b25 5b3e 09a9 59bd 218e 873e f557 a73d
000000b0: 7dfd 7c3d 7bdd 513e 7fb4 b4bd d98d b23d
000000c0: 26cb 453d 0a5f 393e 8aac 5abd 5a32 1c3e
000000d0: bb96 a23e 109d 413e 3f96 003e edb8 523e
000000e0: 7e81 a73d 8bdf f5ba b9c8 85bc 9894 c53e
000000f0: eaee 6dbd 7230 98bc ee3b 40bd f4d1 993d
00000100: bc16 353e a1f1 ef3d d8d4 e93d 9480 ec3d
00000110: f6bf 253e b35e 17bd d761 d83d f074 0e3e
00000120: 7cdb 96bc 2deb 0c3d 1bd4 a2bd 9819 343e
00000130: 05ff d83b bdb0 16bd 37e5 aabd 896d 813d
00000140: 1791 d6bd 2aeb a3bc 8889 583d 40a2 b7bd
00000150: 6ba6 55bb 9ec7 abbd 3d8f 98bd a5f4 a33d
00000160: bffa 3e3d 77e3 6e3b 1e5b d33d 0cdd 913c
00000170: 3344 7dbb 3d58 3c3d 18b3 153d 818d 8f3b
00000180: 4193 d7bc 7358 d93c cc9a 753d 4668 30bc
00000190: 8ac6 1e3d ae4b bf3c f5dc e33d 8784 90bd
000001a0: af4c adbd de0f 09bd 8c90 ae3d 08d4 133e
000001b0: 9f58 f13b cf0b 02be 941a 563d 729c c13c
000001c0: 893d 0f3d 937d 2b3d b8b2 fcbb 0d43 153e
000001d0: b893 03bd a59d 9e3c e11d b03c 2de8 b83d
000001e0: 5be2 d93d 91da d7bb 5b84 833d 2f8e f8bd
000001f0: 5ded 2cbe 6245 993b 65f1 82bd b1e6 2bbd
00000200: 1eb7 05be b748 b1bd dfc9 363b 4251 153c
00000210: 5dfb 06be 7cdf 283d 29eb 4a3d 9c6f 053e
00000220: 6080 9c3c 51c4 183e 69f7 173e 44ec a73d
00000230: de49 a03c d259 5cbc efff 97bc def4 803d
00000240: de72 0b3d 5d6f d0bd 59a1 5abd 0ffe 9c3d
00000250: f1be c9bd 2adb da3c 661a 99bd 6b9a 08bd
00000260: 4a7c aabd 8455 4bbd 5436 d43c 98e9 e8bd
00000270: cdec 2a3d 86ef 00be 3632 bebc d3cf 3e3d
00000280: 0c80 373d 5a5a 75bd 85b6 52bd 6af6 0f3d
00000290: f005 e33d ec16 d73c beb9 a53d 844f 04be
000002a0: af49 693c 2393 7dbd dbe3 b83d 41f4 953d
000002b0: 65b8 823d bdda 6b3d 8a79 89bd a782 a73d
000002c0: fefb ccbd 2e72 c3bd b6e3 c33a 0532 753d
000002d0: e325 41bd 392b 6cbd 644f 023e b693 3fbd
000002e0: 4241 1abe 9d25 a13d d11e 033d 14d8 163d
000002f0: 3c13 cf3b b70b c83b 2d57 91bc 0fdc 9c3d
00000300: cbba dcbc f020 623e 102d c73d b5b6 8b3d
00000310: 8834 eb3d d96c a0bd 3e27 a0bc 325d a23c
00000320: f1b5 3b3e b66b a83d 3bc5 2e3d 96ba e3bd
00000330: fafb 203e d47d f53c 00ca 4fbc 9015 e0bc
00000340: c7af 863c 28cd e83d 891a d6bd dff4 1c3d
00000350: 723c 033d 752a 963d ab1b 09be a2de 6b3c
00000360: 6c54 183d a876 0f3e 59c5 afbc cbe0 043e
00000370: 61c8 503c 53d6 7fbc f67b 09be bc75 81bd
00000380: 4d55 603d 507c d73d 835c 6abd 9a50 da3d
00000390: fd86 98bd 3169 3b3d 1de0 b53d fa62 8b3e
000003a0: 105a f13c ecf9 ea3d 3024 563e a748 bebd
000003b0: 61c8 f3bc 55d5 c2bc 40d1 a03d d9a7 80bd
000003c0: 5592 a4bc 0828 c83d 1538 0a3d db98 2bbe
000003d0: aa25 973d f446 fd3d e75a b73d 9b22 8a3d
000003e0: 286b b5bd c25f 1a3c c65d 833d d0ce 133e
000003f0: 59cb 17be c82e 72bd 0b1f 433d 4815 4c3d
0.13875374 0.15198614 0.07961497 0.04552895 0.18633603 0.100668006 0.163434 0.04099381
0.07242956 0.3005456 0.026739843 0.2050018 -0.04257196 -0.045307815 -0.002014824 0.017210621
0.05078989 0.24026039 0.06261806 0.051122855 0.041164584 0.10884972 0.061646387 -0.02088024
0.06087273 0.19522716 0.17287067 0.24921258 0.14751095 0.19650052 0.12898558 0.050294075
-0.0034787382 0.09946585 0.01120342 0.16607548 0.011510947 -0.041262314 0.17542762 0.25350872
0.21401016 -0.05313972 0.26475623 0.08171073 0.061765183 0.20494644 -0.088234894 0.087184615
0.04828944 0.18102661 -0.053387202 0.15253583 0.31755623 0.18907571 0.12557314 0.20578356
0.081789955 -0.0018758638 -0.016331064 0.3858993 -0.058089174 -0.018577788 -0.046932153 0.075107485
0.17684454 0.11716009 0.1141755 0.11547962 0.16186509 -0.036955547 0.105655365 0.13911796
-0.018415205 0.03440397 -0.07950612 0.17587888 0.0066221976 -0.036789645 -0.083445005 0.0631972
-0.104768924 -0.020009596 0.052865535 -0.089664936 -0.0032600414 -0.08387683 -0.074491955 0.080056466
0.04662585 0.0036451498 0.103201136 0.017805599 -0.0038645386 0.045982588 0.03654775 0.0043808823
-0.026315333 0.026531434 0.05996208 -0.010767048 0.03876356 0.023351517 0.111261286 -0.070565276
-0.08461892 -0.033462398 0.08523664 0.14436352 0.007365301 -0.12699817 0.05227144 0.02363417
0.034970794 0.041867804 -0.0077117346 0.14576359 -0.032123297 0.01936228 0.021498622 0.09028659
0.10638877 -0.0065873344 0.06421729 -0.12136494 -0.16887422 0.0046774605 -0.063936986 -0.04196805
-0.13058135 -0.086564474 0.002789132 0.009113612 -0.13181825 0.041228756 0.049540672 0.13030857
0.019104183 0.14918639 0.14840473 0.08199361 0.019566473 -0.013449149 -0.018554656 0.06296705
0.034045093 -0.10177491 -0.05337653 0.07665645 -0.09850872 0.026715834 -0.07475738 -0.03335039
-0.083244875 -0.0496421 0.025904812 -0.113726795 0.041729737 -0.12591371 -0.023217302 0.046584915
0.04479985 -0.05990062 -0.051443595 0.03514711 0.11085117 0.026256047 0.08092068 -0.12920958
0.014238759 -0.0619079 0.09027835 0.07321978 0.06382827 0.057581652 -0.06712635 0.08179217
-0.10009001 -0.095432624 0.0014945182 0.059862155 -0.047155272 -0.057658408 0.12725598 -0.046771728
-0.15063956 0.07868502 0.03201181 0.036827162 0.0063194316 0.006104912 -0.017741764 0.0765916
-0.026944539 0.22082877 0.09725392 0.06821958 0.11484629 -0.07833261 -0.019549962 0.01981983
0.18331124 0.08223669 0.042668562 -0.11119573 0.15721121 0.029967226 -0.012682438 -0.027354032
0.016441239 0.113672554 -0.1045428 0.038319465 0.032040067 0.07332317 -0.1338946 0.0143963415
0.037189886 0.14010108 -0.021456407 0.12976377 0.012743087 -0.015615064 -0.13426194 -0.06321284
0.05476885 0.105217576 -0.057217132 0.10659905 -0.07447622 0.045754615 0.08880637 0.2722395
0.02946189 0.1147345 0.20912242 -0.09291201 -0.029758634 -0.023783365 0.07852411 -0.062820144
-0.020089308 0.0977326 0.03374489 -0.16757528 0.07380231 0.12367049 0.08952885 0.06744882
-0.08858329 0.0094222445 0.0641437 0.14434361 -0.14823665 -0.059126645 0.047637027 0.049824983

decoder.lstm.weight_ih_l0 f4 [256, 1]
00000000: fe43 763e 5364 923d 2791 d1bd aee4 a43d
00000010: c15b 1f3c c431 e83c 0ac2 e6bd af1a aebc
00000020: f3ff ed3c 148a 003e 19ef 6ebd f1f8 e43c
00000030: 9f5a fe3c 2dbe b6bd 3d05 d33d 6ebb c83c
00000040: b893 cdbc 6a59 71bd ba42 dcbb 0b2b fbbb
00000050: dafe ae3d 6feb 8dbe 4882 70bc 177a fdbd
00000060: 6d03 373e 3c4a 87bd 69ba 81bd 3bb7 7f3d
00000070: 34db f4bd d58d 153d 6894 3a3e 7337 9c3d
00000080: b6ca 103e 61da 0e3e 1ad2 493d 6031 c4bd
00000090: b588 153e 343d f33d aff4 8c3d 8a1f b73d
000000a0: 49ac dbbd 6174 62bd 758e 48bd fa4e 263d
000000b0: e7ef 20be 99f4 d43c 6277 ef3c 004a d73d
000000c0: 68da a93d 667b 893d cabf 8abd 72c3 9a3d
000000d0: 449e 2d3d 2228 303c f8db 7cbc 60e3 2dbc
000000e0: d738 eb3d 6064 c53c 427c 953d dc59 193e
000000f0: c9c3 acbd 38c9 18bd 1329 f13d fa5e 16bd
00000100: f37a d53c 1276 273c d2c7 b7bd 8afc c6bd
00000110: c768 c1bd 0795 0f3d 459b 85bd 8574 993e
00000120: b1a3 ad3d 364c 913e 3ec0 ef3d dea1 fabc
00000130: d075 3f3c b83c 0e3e 4582 91bd fb08 293c
00000140: 587f ce3d b601 823d 907b d9bd 7d45 833d
00000150: e387 623d 9097 f3bd 4d23 853d 5fdd 363d
00000160: 75d5 a33d fdbe 1b3e 6e98 49bc ce80 86bd
00000170: 30f9 d83e 8e77 b93d 8f98 f7bd a33f 313d
00000180: 7bf4 09bd 4ac8 1dbf 2c5a 40bd 873c e13d
00000190: dabb 373d 6a34 8cbc 5d30 583d 9b21 dcbd
000001a0: a595 453d a86d f23d 1555 6a3d 2809 cd3c
000001b0: a16f ff3d fdd8 673d d59d ee3c 078b 1a3e
000001c0: f96e f83d 8eff 07bd 04e5 bfbd 6f0f f43e
000001d0: 34d6 1f3c 2a28 e63d 267c f8bc adb7 9d3d
000001e0: dce5 9c3e 262d 07bd c7d7 083e cfc4 053d
000001f0: 64e4 1c3e 7bbe 33bc 376a 123e b6f2 243d
00000200: fe34 8cbc c623 cdbd f573 cf3d b196 c23d
00000210: 0d3b c43d daed 353d 5533 123e e754 5cbd
00000220: b4d6 40bd 4fa8 233e dfc9 723d 7944 aa3d
00000230: 5bb6 fa3d 1e46 9a3d 81ec 163e 1439 a4bc
00000240: 7d8d 063d 42ac 27bd 4952 ca3d 72b9 0f3d
00000250: 6f8f b63c a729 b63b bc9e a0bd 0f55 80bc
00000260: a9d9 4e3e c068 cdbd 07b2 dc3c 3b64 633d
00000270: 6b73 963d c347 8dbd 2bd0 853d 0b12 49bd
00000280: 2af8 ba3d 36ec a23e 5c80 bd3d a3d8 6e3d
00000290: 0dc3 b83d d151 a6bd a980 ad3d 6cb0 12be
000002a0: a457 0e3d fd5b a73d 09c6 b7bd 6ee7 693d
000002b0: 63d1 0ebd e04c 17be 5979 cdbb 43d1 8cbd
000002c0: 8ce2 703d 6280 ff3c 4efb 0abd 77fe eb3d
000002d0: 1d29 7f3d bc9f 0dbd 6654 5b3d 468b 393d
000002e0: 3d67 41be 4164 023a 4ad0 2ebc b41b c43b
000002f0: 6796 9f3d 531a 513d 33e7 2dbe 178a aebd
00000300: 51c8 d3be 6499 da3c b3b0 8e3d ddb7 fabd
00000310: f4d0 3a3c e6ef 0dbe 0d60 0fbd 1bce 023f
00000320: 406f 14bc 59f6 433f fe04 c5bd c817 a1bc
00000330: 6491 163e f0a1 8abd 9af7 0bbe c758 be3d
00000340: 92fc 963d c91a 9d3d 1b28 e63c a128 4b3e
00000350: 5fb8 573d 33ec 83be 3d4e 79be 946f 98bd
00000360: dd98 213e 291f 313d c655 e33d fbb6 403d
00000370: 0134 ef3e 26c8 1a3e 2a54 84be 69d6 b63d
00000380: 387c 503d f6ee f4be ed9e e13d 0d3e 173e
00000390: bb9c 5a3e 8492 383d 9741 893e d842 bd3b
000003a0: 5d87 233b 414c 1bbd 6912 c73c 476e d23d
000003b0: 3d7c 8bbd d8fc 303e 744c 2d3e 5fdd 4a3e
000003c0: d7ff b63c fa35 f73d 10c1 84bd acae 383f
000003d0: c84b 5c3e b874 3c3c aa4e a6bc 94ce 7f3d
000003e0: e43a 443f 4d97 95be 5d04 c23d 2885 d43d
000003f0: 3f35 adbd 9d0a 98be 15a2 3e3e d04d 1fbd
0.24049374 0.071480416 -0.10232764 0.0805143 0.009726466 0.028344043 -0.11267479 -0.021252958
0.02905271 0.12552673 -0.05833349 0.027950736 0.03104907 -0.08922992 0.103037335 0.024503436
-0.025094852 -0.058923163 -0.0067218216 -0.007665043 0.08544703 -0.27718684 -0.014679499 -0.123768024
0.178724 -0.06605956 -0.06334383 0.0624306 -0.11955872 0.036512215 0.18220675 0.076277636
0.14139828 0.13950492 0.049272634 -0.0957973 0.14602931 0.11876908 0.06882607 0.089415625
-0.1072622 -0.05528677 -0.048963983 0.04060266 -0.15716515 0.02599554 0.02923173 0.10512161
0.08293611 0.067129895 -0.06774862 0.075568095 0.042387262 0.010751756 -0.015433304 -0.010613292
0.11485451 0.024095714 0.07299091 0.14975685 -0.084357806 -0.037301272 0.117754124 -0.03671167
0.026059603 0.010221021 -0.089736596 -0.09716137 -0.09443813 0.035054233 -0.06523756 0.2997171
0.08478487 0.28378457 0.11706589 -0.030594762 0.0116858035 0.1389035 -0.07104925 0.0103170825
0.10082883 0.063479826 -0.10619271 0.06409738 0.055305373 -0.11894143 0.06500874 0.04464471
0.07999698 0.15209575 -0.0123044085 -0.06567536 0.42377615 0.09056006 -0.12089645 0.04327358
-0.03368042 -0.6163374 -0.046960995 0.10997873 0.044856884 -0.017114837 0.052780498 -0.10748597
0.048238415 0.118373215 0.057210047 0.02502878 0.124724634 0.05660342 0.029127995 0.15092097
0.12130541 -0.0332027 -0.09369853 0.47668025 0.00975566 0.112381294 -0.030332636 0.07701049
0.3064412 -0.03300204 0.13363563 0.032658394 0.15321499 -0.010970707 0.1429833 0.04027053
-0.017115112 -0.10016589 0.10129539 0.09501398 0.095815755 0.044416286 0.14277394 -0.053791907
-0.047079757 0.15982173 0.05927455 0.083138414 0.12241813 0.07532905 0.14738657 -0.020046748
0.032849777 -0.040935762 0.09878976 0.035088964 0.022285191 0.0055591646 -0.07842776 -0.01566556
0.20200218 -0.10029745 0.026940359 0.05551551 0.07346233 -0.06898453 0.065338455 -0.049089473
0.09129365 0.3182084 0.09252998 0.05831207 0.09021578 -0.08121074 0.084718056 -0.14325112
0.03475155 0.08171842 -0.08973319 0.057105474 -0.034867655 -0.14775419 -0.0062705693 -0.06875851
0.058809802 0.031189147 -0.03393107 0.11523145 0.062295068 -0.034576163 0.053547285 0.045298837
-0.18887039 0.00049740454 -0.010669777 0.005984748 0.07792359 0.051050495 -0.16982727 -0.08522432
-0.41363767 0.02668447 0.069672965 -0.122421004 0.011402357 -0.13861045 -0.03500371 0.5109574
-0.009059727 0.7654777 -0.09620093 -0.01966466 0.147039 -0.067691684 -0.13668671 0.09294277
0.07372393 0.076711245 0.028095296 0.19839717 0.052666064 -0.25766143 -0.24346252 -0.07443157
0.15780969 0.043242607 0.11100344 0.047049504 0.46719363 0.15115413 -0.25845462 0.08927614
0.050899714 -0.47838563 0.11016641 0.14769764 0.2134885 0.045061603 0.26807854 0.0057757907
0.002495251 -0.03791452 0.02430077 0.1027494 -0.06810806 0.17283952 0.16923696 0.19811009
0.02233879 0.12070842 -0.06482136 0.7214153 0.21513283 0.011502437 -0.020301182 0.062452868
0.7665236 -0.29216996 0.094734885 0.1037696 -0.084574215 -0.29695597 0.18616517 -0.038892567

decoder.lstm.weight_hh_l0 f4 [256, 64]
00000000: 15e9 4f3e e60f 1fbd c8ae 8a3c c005 ee3d
00000010: d867 833b 7466 83bd 9eda 003e 964c 2c3e
00000020: 3ae9 0e3d ccdb 073e eadc 05bd 6910 b53d
00000030: f2e0 a53d be73 9ebd 3477 5b3c 555c 91bb
00000040: 8d8c e8bd 9c7f 873d f040 78bd aa18 903d
00000050: 6983 78bc 0556 9d3c d69a 623e 89f9 17be
00000060: 9592 ebbb 05d4 6a3c 37e9 7fbd 8180 2f3d
00000070: 9462 9abd 692e 363d 611a 443c 6b44 a7bd
00000080: 48ae 72bc d6bb 07be 96ff e5bd 11c8 e93d
00000090: dd8d 07be 3ed6 e4bd c736 c1bd 9ee8 ed3d
000000a0: 3918 123d 72c9 d6bd 0d2e fabd 5a75 76bd
000000b0: 7cb4 b2bc 6a54 fdbd b69f 40bc d2cb ac3c
000000c0: 4874 8bbd ad6d 083c 29f9 f73c c36f ab3d
000000d0: a026 643d 2242 27bc c40f e8bd ddaa b6bd
000000e0: 3402 85bd 9129 0dbd 6184 3fbc 30f8 8a3d
000000f0: 6e53 7fbc 3ba9 adb9 e2bc e8bd 72a1 17be
00000100: 9966 f5bd f3f2 a7bd 50dd a43d d0d1 c63d
00000110: 7df7 3b3d e65c fbbd 838d ccbd 2e84 80bc
00000120: 3bbe 8c3d e88a 57bc 6c1c 2d3d 4bf7 e93d
00000130: d381 ddbc 6b21 d63d 7132 39bc a970 d93d
00000140: e0f2 7f3d 00f3 99bc 4572 3b3d 5f14 77bd
00000150: 76fd 02bd 589b 7b3d 0fbe c93d 400b b13c
00000160: a0cb 4dbd 49fb 9b3d 804e 67bd bf3c 993c
00000170: a7d9 9b3b 9040 253e a822 10be fb2e c6bd
00000180: 5025 7f3d 7291 04be b0c8 973d aeb1 fabd
00000190: 7d6f d43d f235 fbbd 21d6 abbd c52b df3c
000001a0: ba63 503c 109b 6b3d 351a 47bd e6ec 47bd
000001b0: 8dcf a4bd 382f f63c 801b 183d aa83 d43d
000001c0: 45aa 673c adf6 ae3c f5a2 ce3d d796 643d
000001d0: f78b bdbd 38b3 803d 8bfd 15bd 1898 c43b
000001e0: 0ee2 4fbd bcdd e0bd 650a 80bd 9cb0 b6bd
000001f0: 4110 613d 33db 2f3d eb98 9a3c c8f3 77bd
00000200: cba9 273d 04b2 0a3d eb25 88bd 98dc fb3d
00000210: a388 d23d 1ae4 19bd 740e 163d c0fb 0abe
00000220: 8908 98bd 6689 b63c 6db7 053c 8ca6 0bbe
00000230: 7388 87bd 8d2d cd3d 2e4a fbbb 956f fdbc
00000240: 47c6 163d c136 a03d 6797 553c 23cc 9a3c
00000250: c86e 57bc dbb5 23be 7b53 06bd 1fb1 e8bd
00000260: 2809 7ebc 502a 7ebd 26ae 0a3d bf72 ce3d
00000270: c215 2c3e 35d1 f23d bad5 47bd a38e e33d
00000280: 83fa cb3d af6b c6bd 186c 73bd b4d0 e5bd
00000290: e2b7 d3bd c109 fdbd 08ce 0ebe 4608 a13c
000002a0: 65c2 163d 4f3b 823d 3ccf 82bd 06d9 05be
000002b0: d2ec 1e3e 86e2 133e 9959 a93d c248 6ebd
000002c0: d45a 3a3d b7cd 9abd f20a 92bc 7fb3 4d3b
000002d0: da57 11be 2969 2e3d 3841 b9bc dd50 c3bd
000002e0: a273 9e3b 3936 073e f472 233e ddd0 d8bd
000002f0: 1cd0 95bd da2c d2bc e334 c9bd 59e7 6bbd
00000300: 5b01 703d 4c10 b33c 3de1 eabd 86fb ddbd
00000310: 5f09 26bc dc88 a1bd dc22 54bd 1473 cc3b
00000320: 21b7 83b9 76a8 1e3c b8f9 f33d b773 a33d
00000330: d397 8bbd 708e 5ebd cb7b 6d3d 5983 c23d
00000340: da59 8ebd 37b5 f03d 91f6 93bd dfe0 333d
00000350: 7928 e1bd cba8 283d eec4 bbbc e625 bb3d
00000360: 138d 61bd 5851 e63d 8c36 8b3d edaf 2d3d
00000370: 553d f63d f449 203c b4ec 993d b3f2 f2bd
00000380: 894f c2bc 5a2a 1bbd feca e23c 29a0 94bd
00000390: 70d9 783d 0598 9e3d ee55 58bd 00de f43c
000003a0: 16b0 833d e87c 943d b413 ab3d e732 6dbd
000003b0: b238 2e3d ec57 dd3c 6d93 9b3d 60a9 693b
000003c0: 90d5 d7bd cbb0 9cbd ac95 3abc d958 40bc
000003d0: 6846 bf3c e9ec a53c 4578 f3bd ea4c 0bbe
000003e0: 2745 f13d f7e5 803d 8711 06bd 9801 cf3d
000003f0: eb40 053d a29e 563d f614 f0bc 47aa 833d
0.20303757 -0.03883352 0.016929045 0.116221905 0.004010182 -0.06416026 0.12583396 0.1682609
0.03489039 0.1326744 -0.032681383 0.088410206 0.080995455 -0.0773692 0.013395119 -0.0044360557
-0.11354933 0.066161364 -0.060608804 0.07035954 -0.015168049 0.019206056 0.22129378 -0.14841284
-0.007189105 0.014332776 -0.06247827 0.04284716 -0.075383335 0.044477854 0.01196918 -0.081673466
-0.01481206 -0.13255247 -0.1123039 0.11415113 -0.1323771 -0.11173676 -0.09434276 0.11616634
0.03566763 -0.104876414 -0.12215815 -0.06017051 -0.021814577 -0.12369616 -0.011756828 0.021093283
-0.06809288 0.00832693 0.030270176 0.08370926 0.0557009 -0.010208638 -0.11331132 -0.08919308
-0.06494561 -0.03446347 -0.011689276 0.06785619 -0.015583856 -0.00033123218 -0.113641515 -0.1480768
-0.119824596 -0.08200636 0.080500245 0.09707987 0.04589032 -0.12273578 -0.09987929 -0.015688028
0.06872221 -0.013155676 0.042263433 0.114241205 -0.027039444 0.10455593 -0.01130353 0.10617191
0.062487483 -0.01879263 0.045763273 -0.06032216 -0.03198 0.061427444 0.09850704 0.02161181
-0.05024302 0.07616288 -0.056471348 0.018705724 0.004756171 0.1613791 -0.1407572 -0.096769296
0.062291443 -0.12946108 0.07411325 -0.12240921 0.10372827 -0.122661486 -0.08390451 0.02724255
0.012719089 0.057520926 -0.048608977 -0.04880991 -0.080474 0.030051813 0.0371356 0.103766754
0.0141397165 0.021357859 0.10089675 0.055807915 -0.09255212 0.06284183 -0.03661875 0.0059995763
-0.050752692 -0.109797925 -0.062519826 -0.08920404 0.05494714 0.042933654 0.018871745 -0.060535222
0.04093341 0.033861175 -0.06647857 0.12297934 0.10279968 -0.03757105 0.036634877 -0.13572598
-0.07423503 0.022282314 0.008161408 -0.13637751 -0.066178225 0.10018454 -0.007668755 -0.030936996
0.036810186 0.078229435 0.013036585 0.018896168 -0.013148971 -0.15987341 -0.032794457 -0.11361908
-0.015505113 -0.06205207 0.033857487 0.1008048 0.16805175 0.11856309 -0.04878781 0.1111119
0.09959891 -0.09688508 -0.059429258 -0.112214476 -0.10337807 -0.12355376 -0.13945782 0.019657265
0.036806483 0.063589685 -0.06387183 -0.13071069 0.15520027 0.1444188 0.082690425 -0.058174856
0.045496777 -0.07558768 -0.017827485 0.0031387506 -0.14193669 0.042580757 -0.022614107 -0.09536908
0.004835562 0.13204278 0.1596182 -0.105867125 -0.07315084 -0.025656153 -0.098245405 -0.057593677
0.058595043 0.021858357 -0.11468742 -0.1083899 -0.01013407 -0.07887432 -0.051791057 0.0062393043
-0.0002512271 0.009683719 0.119128644 0.07981055 -0.068160675 -0.054335058 0.057979386 0.09497709
-0.069507316 0.11753314 -0.07224763 0.043915626 -0.10994048 0.0411766 -0.022921052 0.09138088
-0.05506618 0.11245984 0.06797513 0.042404104 0.12023417 0.009783257 0.07515851 -0.118626975
-0.023719566 -0.037882186 0.027684685 -0.072571106 0.06075424 0.07743839 -0.052816324 0.029891014
0.0643007 0.072503865 0.083533674 -0.057909872 0.042534538 0.027019463 0.075964786 0.0035653934
-0.10538781 -0.07650908 -0.011388224 -0.011739933 0.023349002 0.02025457 -0.11888174 -0.13603559
0.11780768 0.06293862 -0.03273156 0.10107726 0.032532614 0.052397378 -0.02930687 0.06428962

decoder.lstm.bias_ih_l0 f4 [256]
00000000: 6362 a8bc 558d 8fbd c562 20bd 4173 c63c
00000010: efe2 4e3c 7957 f7bd 258e 16bd b535 15bd
00000020: 678d 66bd 0abf 81bc 45a7 653b 1407 1ebe
00000030: 74ec 07bd 569b a53d 14a2 8bbc 7410 0f3d
00000040: 1fb3 f8bd d2eb 12bd 1a65 4b3c 942e 20bd
00000050: 6b2f 42bd e99c bd3d 73b2 a43b af91 9abd
00000060: 66ab 0b3e 5e63 27bd 8345 05bd ebbe 0bbd
00000070: 9c11 b3bd 044e 68bd 5f39 0bbc a3cf d7bb
00000080: c326 91bc 2f27 9cbb 46d1 9a3c 8f04 db3c
00000090: cf34 b3bd 4e59 2d3d db98 b1bd 3e30 7ebc
000000a0: 2df4 3f3c 49ca fe3b e37a a4bd 6b97 cbbd
000000b0: 2954 68bd 847d 913a df31 abbd 4b3d 383d
000000c0: 5625 7d3d b81b 49bd cbbb 1b3d ffea bbbb
000000d0: f13d de3b b05b c2bc 0876 3fbd 96ea d53d
000000e0: 4e30 e63c e52e 88bd a1ff b33d c2e7 4abd
000000f0: 0a56 853d b28d 0a3b 3aee bb3d a940 39bd
00000100: c9e9 0e3e a35b 473d 3b0e 343d 4cb3 fdbc
00000110: 98c7 853d f8c1 3a3c 183e 3c3d 8569 ce3c
00000120: f97a acbd 6077 a23d 994b cebd 2c69 223e
00000130: 62de 09be c2d3 c83d 28ed a93d f0bd d3bd
00000140: 292d 6abc daaf b1bd 3038 7c3b c896 883a
00000150: 6726 3e3e 4ca7 813d 0430 0cbe eac5 a23d
00000160: 8fe1 e4bb 1cfe bf3d dfaa 133d 1f03 0b3d
00000170: 5cc5 ae3c 8468 b3ba 588e bebc b371 223d
00000180: 79a5 ea3d 3431 143e d09f c83d 85e3 733d
00000190: 4069 95bd 5c41 2fbd 44a9 c8bc 0a99 983d
000001a0: 58d1 72bd e145 e13b 634d 19bd 588d 133e
000001b0: d0a7 e9bc 7312 103c 37d3 a93d db62 33bd
000001c0: 90e6 253e 40bd 8abd 0058 843d ad0a ca3e
000001d0: dd62 0cbd 8c70 ee3c 22f9 f53d 0d19 afbd
000001e0: db8b 0c3e d9ab 00bd 2858 783d 2346 3cbd
000001f0: f998 023c 0fa1 943d 08a6 693d 2600 54bd
00000200: c958 a2bc 4161 0d3d c3df 093d 465d 86bd
00000210: b4f7 ef3d b4d1 b8bc 8aa4 8ebd 6a3c 773d
00000220: d3c8 96bd 0aa2 78bd 8db5 a23d abfa 003e
00000230: 71e8 57bd fc66 22bd 3a11 acbd 7cfd 4a3c
00000240: 4ae4 f2bc f9c3 f53c d448 9d3d 335e c63d
00000250: 5378 a03d 760b fd3c e695 b7bc 6ea9 b6bc
00000260: 18ea eabd 11c0 743c 60fa 01bd 4931 ec3c
00000270: f962 b3bc 387e 2e3d b9eb 263d 1ff5 4cbd
00000280: e7dc 01bd 7197 e13d 0bf7 bfbd 0689 39bd
00000290: c0b7 3cbb 72ea bb3c c519 163c a76f 773b
000002a0: 4d99 babd 67f9 ae3d 0a99 18bd 4b26 953d
000002b0: 01ee 323d 3a0f e03d 3250 723d 6b6d 0a3e
000002c0: 3826 603d 9545 483d 934e c8bd 3251 c53d
000002d0: 9070 a03d d7da a33d 3195 afbd 7300 62bd
000002e0: ee51 e13c 96e1 683d 8c07 fcbd c6ab febd
000002f0: c136 b93d 8d6e 043d 9056 84bd 6f37 09be
00000300: 2932 973d 1495 30bc 7f21 bcbd cb1f 3b3c
00000310: 36ee 003d 6fc7 7fbd abd1 303c 2d23 133d
00000320: fcac 5bbd a912 0d3e b7f6 cb3d 0fed 0b3c
00000330: 4b8e 0cbd 02d9 8cbd aa4a c13d cc93 8ebd
00000340: be80 b63d 39bd 4bbc d8bf 063e d99d 773d
00000350: 1674 b33c 0b5b 06bd a236 82bd fc12 b73d
00000360: da47 6bbb d9c7 1ebd 4faf 053e adce f03d
00000370: 3d98 193d 2208 2f3c b96a f93d 533b 39bc
00000380: 6e70 713c c18e 0b3e 59c4 acbd 0699 2bbd
00000390: c696 7ebd b6d9 653d 7036 22bd 81a2 4b3c
000003a0: 1402 82bd 6c89 c7bd 707c 8bbd 0423 c6bd
000003b0: 13bf d1bd 79c0 453d fb21 c93c 7ca6 013e
000003c0: 9204 133e 9cb6 c8bd 412e 86bd d044 5a3e
000003d0: da32 8a3c c45e b83d 1143 bdbd 89e9 45bd
000003e0: ee46 d7bd 524c 923d e4cf 1a3e 8241 9ebc
000003f0: fdc5 bdbd e0e3 64bd 84d9 f5bc e60e a7bc
-0.020554727 -0.07009379 -0.039156694 0.02422488 0.012627347 -0.12077231 -0.036756653 -0.036428172
-0.056287196 -0.015838165 0.0035042327 -0.15432388 -0.033184484 0.080862686 -0.017045058 0.0349278
-0.1214354 -0.035869427 0.012414241 -0.03910692 -0.047408503 0.09258444 0.0050261556 -0.07547318
0.13639602 -0.04086625 -0.032536995 -0.03411762 -0.08743593 -0.056715026 -0.008497565 -0.0065860315
-0.017718678 -0.0047654132 0.018898617 0.026735572 -0.08750307 0.042321496 -0.08671733 -0.0155144315
0.011715931 0.007775579 -0.08031251 -0.0994099 -0.056720886 0.0011100029 -0.083591215 0.04498033
0.061803184 -0.0490987 0.03802089 -0.005734801 0.0067822863 -0.02372536 -0.046743423 0.10445134
0.028099205 -0.066495694 0.08788992 -0.049537428 0.06510551 0.0021141586 0.091762975 -0.04522768
0.1395637 0.048671376 0.043958884 -0.030969284 0.0653221 0.011398785 0.045957655 0.0251968
-0.08421893 0.07932925 -0.10073013 0.15860432 -0.13463739 0.098060146 0.08297187 -0.10338962
-0.014292994 -0.08676119 0.0038485639 0.0010420913 0.18569337 0.063307375 -0.13690192 0.07947905
-0.0069848965 0.093746394 0.036051627 0.033938523 0.021334343 -0.0013687764 -0.023261234 0.039659213
0.11457343 0.14471895 0.09796107 0.05954315 -0.072954655 -0.04278694 -0.024494775 0.07451065
-0.059281677 0.0068747853 -0.037427317 0.14409387 -0.028522402 0.008793461 0.08292239 -0.043795448
0.16201234 -0.06774378 0.06462097 0.3946127 -0.03427397 0.0291064 0.12010409 -0.085497
0.13725226 -0.031413887 0.060630947 -0.045965325 0.007971042 0.07257282 0.057043105 -0.051757954
-0.019817727 0.034516577 0.03366066 -0.06560759 0.117171675 -0.022560932 -0.06964977 0.06036035
-0.07362523 -0.060701407 0.07944784 0.12595622 -0.052711908 -0.039648995 -0.08401723 0.012389537
-0.029649872 0.030000674 0.076799065 0.09685936 0.0783545 0.030889254 -0.022410344 -0.022297587
-0.11470431 0.01493837 -0.031732917 0.028832095 -0.02189778 0.04260084 0.040752146 -0.050038453
-0.03170481 0.11015213 -0.093732916 -0.04529669 -0.0028796047 0.02293894 0.009161417 0.003775576
-0.09111271 0.085436635 -0.037255324 0.072826944 0.04368401 0.10940404 0.05915851 0.13518302
0.05472395 0.048894484 -0.09780612 0.096346274 0.078339696 0.08000725 -0.08573378 -0.05517621
0.027504887 0.05685576 -0.12306127 -0.12435107 0.090436466 0.032331992 -0.06461823 -0.13400052
0.07382614 -0.0107777305 -0.091860764 0.011421154 0.031477176 -0.062446054 0.010792176 0.035922218
-0.053631768 0.1377665 0.099591665 0.008540406 -0.03431539 -0.068773285 0.09438069 -0.06961784
0.089112744 -0.012435251 0.1315912 0.06045327 0.02190594 -0.03280167 -0.06358077 0.08939168
-0.0035900981 -0.03876481 0.13055156 0.1175817 0.0374987 0.010683091 0.12178559 -0.011305648
0.014736278 0.13628675 -0.08435888 -0.04189398 -0.062155508 0.05611583 -0.039602697 0.012428881
-0.063480526 -0.09743008 -0.06810844 -0.096746475 -0.10241523 0.04827926 0.024552336 0.12661165
0.14357212 -0.09800455 -0.06551791 0.21315312 0.016869951 0.0900245 -0.092413075 -0.04831842
-0.10511576 0.07143463 0.15118366 -0.019318346 -0.09266279 -0.05588138 -0.030010946 -0.020392846

decoder.lstm.bias_hh_l0 f4 [256]
00000000: 8c29 d43d c6fd 6b3d 3b04 a0bd 91fd a7bd
00000010: a436 8fbd fdd6 cf3d 7324 cbbb 6321 793c
00000020: 4442 60bb 7d53 2e3e c1c0 7e3d 332b 64bd
00000030: d268 cd3d 4025 db3d 780c bfbc ebd7 eb3d
00000040: 9282 febd 864f 593d 27e6 b33d c9a1 843d
00000050: 20c1 b03d 8cc5 57bc ca4c 963d dea0 13bc
00000060: 0e5f 88b9 c201 9bbd 9b2b 1cbd c6a7 1f3d
00000070: f627 bc3d 14b0 58bd 74a4 a63d e9c9 00bd
00000080: f901 773c 1779 c23d 52c6 e6bc 60d4 1b3d
00000090: d2d4 43bd 5e24 a5bd 598f d1bd d33a e8bc
000000a0: 6ea6 11bd cb9e e1bd d77c afbd df03 0a3e
000000b0: 03e7 2abc 90b8 4bbd 6ef3 c5bc 0c16 e43d
000000c0: 0de1 aa3d d468 2e3d 9601 c6bd e372 443e
000000d0: 458a dd3d 2aa4 cb3d 4721 793c aa1f 8abd
000000e0: f124 4e3d 2975 053d e134 d53d 2e5f 22bd
000000f0: eb13 e5bd a7d6 08bd f650 d1bd 2ac6 b33d
00000100: 7ba2 c03e 92be abbd f42c aabd 731d 8bbd
00000110: 2670 e5bd 2e70 743d a8b5 8dbd 0ca7 a73d
00000120: d993 963d 2bb9 193e 6c34 643c 4678 3f3d
00000130: df3c bfbc 5a49 703d 5a4c d03d bca7 ad3d
00000140: 66bc ae3d 985a e53d 4aea 9cbd e9d8 9a3d
00000150: 4993 4f3e 98e0 cbbd 122b e73a 6ca4 dc3d
00000160: f1fb e53d cc53 72bd e4cd a1bd 45d7 cf3d
00000170: 88e9 02be fe28 ab3d fe0b d0bc 3c28 9f3d
00000180: 3282 a2bc c79c 3fbb c489 013e d256 283c
00000190: 4ea0 f9b9 796e 003e 7fea bd3d 2f68 80bd
000001a0: 6fd0 813d 0752 f03d 2fb0 39bd 084d 13bd
000001b0: 771a bfbd ef6f 03bb 51d1 64bc 6e7a 33bc
000001c0: e84a 2a3e 48eb 50bd f8ba 9a3d 75d8 bf3e
000001d0: 9f7a e83d 9519 d63d d073 343d 13f7 a4bd
000001e0: 1527 67bb ef70 1e3d 524c 933d da10 1e3c
000001f0: 781e d6bd 428b bbbd 4800 37bd 73c2 73bc
00000200: a163 a03c b69a 053e 5d75 edbd 2fcd c9bd
00000210: 9873 d1bb 7cbe c6bc b6bc 86bd 2e6d 813b
00000220: f3a2 c83c 9dd9 8f3d 799f 843b d509 86bd
00000230: 457d 83bc 1fa6 d0bd a6bd 0e3c 5d02 e9bd
00000240: 9652 453d 6156 653d df70 c7bc ff9e b7bd
00000250: 6744 e6bd 3eb4 9abd edfe 1dbd 2cb0 803d
00000260: 2075 b63d 0ab0 283d 9fc0 01be 1a09 ecbd
00000270: 51d0 813d d0c5 a53d 235f 3abd 1382 03bd
00000280: 3516 57bd 3f0c c1bd 65d0 a6bd 63a2 b43d
00000290: 5aca a23d e88a 09be aa47 0bbe 1aec cabd
000002a0: 23e7 a8bd 6539 ebbc b61f 72bd b587 99bd
000002b0: b5d1 b1bd 9457 05be de66 d1bc ed95 fcbb
000002c0: a0ce 42bd acf3 82bc 2bec 4cbd b700 8dbc
000002d0: 38f1 c4bb 8414 423d 98ed 113d a56b 873d
000002e0: 0c4a 81ba 8e25 6bbd 0aa3 263d 01ac 8abd
000002f0: 0d4d a7bd d576 b53d 72f4 b03d bbf1 ce3c
00000300: 997f 8b3c efce 8b3d 89b4 eebc 8d01 ba3c
00000310: 5077 f73d 9423 163d 6dbd c73d 1ae3 bcbc
00000320: ccd2 d3bd 35ea 1f3e f64f 423d bb09 7ebd
00000330: 4330 963c 60bb 033e 24c5 d7bd eeb8 063e
00000340: b87a b8bd 38ba 0d3e e707 f73c 8f50 3fbd
00000350: 4ad0 d13d a645 eabd dc58 1b3d 1aa2 6a3d
00000360: c233 043d 5e0a e4bd 594e 973d cdb3 c4bd
00000370: 9b13 1e3d 31d2 17bd bae9 99bb 0024 79bd
00000380: 0f7b 0dbd a493 5d3e 8949 743d 42b0 5ebd
00000390: 7507 8d3d 765c 1fbd 159a 75bc bc91 82bd
000003a0: 2cd2 d73d 3148 7d3d ef0d d7bc b9d1 073e
000003b0: 534e c33d 945e 56bd 1c27 d23d 81a9 0a3d
000003c0: 703b 86bd f621 ec3d e29e 95bd 4d03 0a3d
000003d0: e018 bb3d 7635 1f3e 0c94 fd3c 0f26 b23b
000003e0: b864 023e 1ecb eebd 44c5 643d 3cef 753b
000003f0: 2204 0d3d 7853 c4bd f0f7 a73d 0eaa 87bd
0.10359487 0.057615064 -0.07813307 -0.08202661 -0.06992844 0.10148428 -0.0061994134 0.015205714
-0.0034219185 0.17024036 0.062195543 -0.05570526 0.100297585 0.10700464 -0.023321375 0.115157925
-0.12427248 0.053054355 0.087841325 0.064761706 0.08630586 -0.013169657 0.07338865 -0.009010522
-0.00026010763 -0.07568695 -0.038127523 0.03897836 0.091873094 -0.052902296 0.08136836 -0.031442557
0.015076154 0.09495752 -0.028170738 0.038044333 -0.047810383 -0.08063577 -0.102324195 -0.028348362
-0.03555911 -0.110166155 -0.08568733 0.13478039 -0.010431054 -0.04973656 -0.024163928 0.111370176
0.08343706 0.04258044 -0.09668271 0.19184451 0.108173884 0.09943421 0.015205688 -0.06744321
0.0503282 0.032582436 0.104104765 -0.03964155 -0.1118544 -0.033407833 -0.1022052 0.08778031
0.37623963 -0.08385958 -0.083093554 -0.06792726 -0.11203031 0.059677295 -0.06919414 0.081861585
0.073524185 0.15012042 0.013928514 0.04674556 -0.023344455 0.058663704 0.10170813 0.084792584
0.08532028 0.1119892 -0.076618746 0.075609036 0.20271029 -0.09954947 0.0017636737 0.107735485
0.11229695 -0.059161946 -0.07900599 0.10148481 -0.12784398 0.08357428 -0.025396343 0.07771346
-0.019837473 -0.0029237734 0.1265021 0.010274606 -0.00047612417 0.12542142 0.09273242 -0.062698714
0.06338584 0.117343955 -0.045334037 -0.035962135 -0.0933122 -0.0020055731 -0.013965921 -0.0109544825
0.16630137 -0.05100563 0.07555193 0.3746983 0.11351513 0.10454098 0.04405576 -0.08054938
-0.0035271097 0.03868192 0.07192291 0.009647572 -0.1045503 -0.09157421 -0.044678003 -0.014877903
0.019578757 0.13047299 -0.11594651 -0.09853589 -0.0063919537 -0.024260752 -0.065789625 0.003949783
0.024491763 0.07023928 0.004047331 -0.06544844 -0.016050944 -0.10187935 0.008712208 -0.11377404
0.048174463 0.05599058 -0.024345813 -0.08965873 -0.112435155 -0.0755391 -0.038573194 0.06283602
0.089090586 0.04118351 -0.12671135 -0.115251735 0.06338561 0.0809437 -0.045500886 -0.03210647
-0.052511413 -0.09426164 -0.08145217 0.08820035 0.07948752 -0.13431895 -0.13601556 -0.09908314
-0.08247211 -0.028713891 -0.059112273 -0.07496587 -0.086825766 -0.1302169 -0.025561746 -0.0077083022
-0.047560334 -0.015985332 -0.050029915 -0.017212255 -0.006010201 0.047382846 0.035626978 0.066123284
-0.0009863987 -0.05740886 0.04068283 -0.067710884 -0.08168993 0.08860556 0.08640374 0.02526175
0.017028617 0.06826579 -0.02913882 0.022705818 0.12083304 0.036655024 0.09752927 -0.02305751
-0.10342941 0.15616687 0.047439538 -0.062021 0.01833356 0.12864447 -0.105356485 0.13156483
-0.09007782 0.13840568 0.030155135 -0.046707686 0.10244806 -0.11439066 0.03792654 0.0572835
0.032275923 -0.1113479 0.073879905 -0.09604607 0.038592916 -0.03706569 -0.004697052 -0.060825348
-0.034541186 0.21638352 0.05964044 -0.05436731 0.06886188 -0.038906537 -0.014990349 -0.06375453
0.10538134 0.061836425 -0.026251761 0.13263597 0.095364235 -0.05233629 0.10261366 0.033853058
-0.065543056 0.11529915 -0.07305695 0.033694554 0.09135604 0.15547737 0.030954383 0.005436666
0.12733734 -0.11659835 0.05585219 0.0037526628 0.03442777 -0.09586233 0.08201587 -0.06624232
